…
ects will no longer be allowed to be loaded via this mode unless they are explicitly allowlisted by the user via `torch.serialization.add_safe_globals`. We recommend you start setting `weights_only=True` for any use case where you don't have full control of the loaded file. Please open an issue on GitHub for any issues related to this experimental feature.
  loadedState = torch.load(model_path, map_location=device)
2025-02-08 11:20:37,018 (train_accelerate_ddp:949) INFO: model: TSVADModel(
  (rs_dropout): Dropout(p=0.1, inplace=False)
  (speech_encoder): CAMPPlus(
    (head): FCM(
      (conv1): Conv2d(1, 32, kernel_size=(3, 3), stride=(1, 1), padding=(1, 1), bias=False)
      (bn1): BatchNorm2d(32, eps=1e-05, momentum=0.1, affine=True, track_running_stats=True)
      (layer1): Sequential(
        (0): BasicResBlock(
          (conv1): Conv2d(32, 32, kernel_size=(3, 3), stride=(2, 1), padding=(1, 1), bias=False)
          (bn1): BatchNorm2d(32, eps=1e-05, momentum=0.1, affine=True, track_running_stats=True)
          (conv2): Conv2d(32, 32, kernel_size=(3, 3), stride=(1, 1), padding=(1, 1), bias=False)
          (bn2): BatchNorm2d(32, eps=1e-05, momentum=0.1, affine=True, track_running_stats=True)
          (shortcut): Sequential(
            (0): Conv2d(32, 32, kernel_size=(1, 1), stride=(2, 1), bias=False)
            (1): BatchNorm2d(32, eps=1e-05, momentum=0.1, affine=True, track_running_stats=True)
          )
        )
        (1): BasicResBlock(
          (conv1): Conv2d(32, 32, kernel_size=(3, 3), stride=(1, 1), padding=(1, 1), bias=False)
          (bn1): BatchNorm2d(32, eps=1e-05, momentum=0.1, affine=True, track_running_stats=True)
          (conv2): Conv2d(32, 32, kernel_size=(3, 3), stride=(1, 1), padding=(1, 1), bias=False)
          (bn2): BatchNorm2d(32, eps=1e-05, momentum=0.1, affine=True, track_running_stats=True)
          (shortcut): Sequential()
        )
      )
      (layer2): Sequential(
        (0): BasicResBlock(
          (conv1): Conv2d(32, 32, kernel_size=(3, 3), stride=(2, 1), padding=(1, 1), bias=False)
          (bn1): BatchNorm2d(32, eps=1e-05, momentum=0.1, affine=True, track_running_stats=True)
          (conv2): Conv2d(32, 32, kernel_size=(3, 3), stride=(1, 1), padding=(1, 1), bias=False)
          (bn2): BatchNorm2d(32, eps=1e-05, momentum=0.1, affine=True, track_running_stats=True)
          (shortcut): Sequential(
            (0): Conv2d(32, 32, kernel_size=(1, 1), stride=(2, 1), bias=False)
            (1): BatchNorm2d(32, eps=1e-05, momentum=0.1, affine=True, track_running_stats=True)
          )
        )
        (1): BasicResBlock(
          (conv1): Conv2d(32, 32, kernel_size=(3, 3), stride=(1, 1), padding=(1, 1), bias=False)
          (bn1): BatchNorm2d(32, eps=1e-05, momentum=0.1, affine=True, track_running_stats=True)
          (conv2): Conv2d(32, 32, kernel_size=(3, 3), stride=(1, 1), padding=(1, 1), bias=False)
          (bn2): BatchNorm2d(32, eps=1e-05, momentum=0.1, affine=True, track_running_stats=True)
          (shortcut): Sequential()
        )
      )
      (conv2): Conv2d(32, 32, kernel_size=(3, 3), stride=(2, 1), padding=(1, 1), bias=False)
      (bn2): BatchNorm2d(32, eps=1e-05, momentum=0.1, affine=True, track_running_stats=True)
    )
    (xvector): Sequential(
      (tdnn): TDNNLayer(
        (linear): Conv1d(320, 128, kernel_size=(5,), stride=(2,), padding=(2,), bias=False)
        (nonlinear): Sequential(
          (batchnorm): BatchNorm1d(128, eps=1e-05, momentum=0.1, affine=True, track_running_stats=True)
          (relu): ReLU(inplace=True)
        )
      )
      (block1): CAMDenseTDNNBlock(
        (0): CAMDenseTDNNLayer(
          (nonlinear1): Sequential(
            (batchnorm): BatchNorm1d(128, eps=1e-05, momentum=0.1, affine=True, track_running_stats=True)
            (relu): ReLU(inplace=True)
          )
          (linear1): Conv1d(128, 128, kernel_size=(1,), stride=(1,), bias=False)
          (nonlinear2): Sequential(
            (batchnorm): BatchNorm1d(128, eps=1e-05, momentum=0.1, affine=True, track_running_stats=True)
            (relu): ReLU(inplace=True)
          )
          (cam_layer): CAMLayer(
            (linear_local): Conv1d(128, 32, kernel_size=(3,), stride=(1,), padding=(1,), bias=False)
            (linear1): Conv1d(128, 64, kernel_size=(1,), stride=(1,))
            (relu): ReLU(inplace=True)
            (linear2): Conv1d(64, 32, kernel_size=(1,), stride=(1,))
            (sigmoid): Sigmoid()
          )
        )
        (1): CAMDenseTDNNLayer(
          (nonlinear1): Sequential(
            (batchnorm): BatchNorm1d(160, eps=1e-05, momentum=0.1, affine=True, track_running_stats=True)
            (relu): ReLU(inplace=True)
          )
          (linear1): Conv1d(160, 128, kernel_size=(1,), stride=(1,), bias=False)
          (nonlinear2): Sequential(
            (batchnorm): BatchNorm1d(128, eps=1e-05, momentum=0.1, affine=True, track_running_stats=True)
            (relu): ReLU(inplace=True)
          )
          (cam_layer): CAMLayer(
            (linear_local): Conv1d(128, 32, kernel_size=(3,), stride=(1,), padding=(1,), bias=False)
            (linear1): Conv1d(128, 64, kernel_size=(1,), stride=(1,))
            (relu): ReLU(inplace=True)
            (linear2): Conv1d(64, 32, kernel_size=(1,), stride=(1,))
            (sigmoid): Sigmoid()
          )
        )
        (2): CAMDenseTDNNLayer(
          (nonlinear1): Sequential(
            (batchnorm): BatchNorm1d(192, eps=1e-05, momentum=0.1, affine=True, track_running_stats=True)
            (relu): ReLU(inplace=True)
          )
          (linear1): Conv1d(192, 128, kernel_size=(1,), stride=(1,), bias=False)
          (nonlinear2): Sequential(
            (batchnorm): BatchNorm1d(128, eps=1e-05, momentum=0.1, affine=True, track_running_stats=True)
            (relu): ReLU(inplace=True)
          )
          (cam_layer): CAMLayer(
            (linear_local): Conv1d(128, 32, kernel_size=(3,), stride=(1,), padding=(1,), bias=False)
            (linear1): Conv1d(128, 64, kernel_size=(1,), stride=(1,))
            (relu): ReLU(inplace=True)
            (linear2): Conv1d(64, 32, kernel_size=(1,), stride=(1,))
            (sigmoid): Sigmoid()
          )
        )
        (3): CAMDenseTDNNLayer(
          (nonlinear1): Sequential(
            (batchnorm): BatchNorm1d(224, eps=1e-05, momentum=0.1, affine=True, track_running_stats=True)
            (relu): ReLU(inplace=True)
          )
          (linear1): Conv1d(224, 128, kernel_size=(1,), stride=(1,), bias=False)
          (nonlinear2): Sequential(
            (batchnorm): BatchNorm1d(128, eps=1e-05, momentum=0.1, affine=True, track_running_stats=True)
            (relu): ReLU(inplace=True)
          )
          (cam_layer): CAMLayer(
            (linear_local): Conv1d(128, 32, kernel_size=(3,), stride=(1,), padding=(1,), bias=False)
            (linear1): Conv1d(128, 64, kernel_size=(1,), stride=(1,))
            (relu): ReLU(inplace=True)
            (linear2): Conv1d(64, 32, kernel_size=(1,), stride=(1,))
            (sigmoid): Sigmoid()
          )
        )
        (4): CAMDenseTDNNLayer(
          (nonlinear1): Sequential(
            (batchnorm): BatchNorm1d(256, eps=1e-05, momentum=0.1, affine=True, track_running_stats=True)
            (relu): ReLU(inplace=True)
          )
          (linear1): Conv1d(256, 128, kernel_size=(1,), stride=(1,), bias=False)
          (nonlinear2): Sequential(
            (batchnorm): BatchNorm1d(128, eps=1e-05, momentum=0.1, affine=True, track_running_stats=True)
            (relu): ReLU(inplace=True)
          )
          (cam_layer): CAMLayer(
            (linear_local): Conv1d(128, 32, kernel_size=(3,), stride=(1,), padding=(1,), bias=False)
            (linear1): Conv1d(128, 64, kernel_size=(1,), stride=(1,))
            (relu): ReLU(inplace=True)
            (linear2): Conv1d(64, 32, kernel_size=(1,), stride=(1,))
            (sigmoid): Sigmoid()
          )
        )
        (5): CAMDenseTDNNLayer(
          (nonlinear1): Sequential(
            (batchnorm): BatchNorm1d(288, eps=1e-05, momentum=0.1, affine=True, track_running_stats=True)
            (relu): ReLU(inplace=True)
          )
          (linear1): Conv1d(288, 128, kernel_size=(1,), stride=(1,), bias=False)
          (nonlinear2): Sequential(
            (batchnorm): BatchNorm1d(128, eps=1e-05, momentum=0.1, affine=True, track_running_stats=True)
            (relu): ReLU(inplace=True)
          )
          (cam_layer): CAMLayer(
            (linear_local): Conv1d(128, 32, kernel_size=(3,), stride=(1,), padding=(1,), bias=False)
            (linear1): Conv1d(128, 64, kernel_size=(1,), stride=(1,))
            (relu): ReLU(inplace=True)
            (linear2): Conv1d(64, 32, kernel_size=(1,), stride=(1,))
            (sigmoid): Sigmoid()
          )
        )
        (6): CAMDenseTDNNLayer(
          (nonlinear1): Sequential(
            (batchnorm): BatchNorm1d(320, eps=1e-05, momentum=0.1, affine=True, track_running_stats=True)
            (relu): ReLU(inplace=True)
          )
          (linear1): Conv1d(320, 128, kernel_size=(1,), stride=(1,), bias=False)
          (nonlinear2): Sequential(
            (batchnorm): BatchNorm1d(128, eps=1e-05, momentum=0.1, affine=True, track_running_stats=True)
            (relu): ReLU(inplace=True)
          )
          (cam_layer): CAMLayer(
            (linear_local): Conv1d(128, 32, kernel_size=(3,), stride=(1,), padding=(1,), bias=False)
            (linear1): Conv1d(128, 64, kernel_size=(1,), stride=(1,))
            (relu): ReLU(inplace=True)
            (linear2): Conv1d(64, 32, kernel_size=(1,), stride=(1,))
            (sigmoid): Sigmoid()
          )
        )
        (7): CAMDenseTDNNLayer(
          (nonlinear1): Sequential(
            (batchnorm): BatchNorm1d(352, eps=1e-05, momentum=0.1, affine=True, track_running_stats=True)
            (relu): ReLU(inplace=True)
          )
          (linear1): Conv1d(352, 128, kernel_size=(1,), stride=(1,), bias=False)
          (nonlinear2): Sequential(
            (batchnorm): BatchNorm1d(128, eps=1e-05, momentum=0.1, affine=True, track_running_stats=True)
            (relu): ReLU(inplace=True)
          )
          (cam_layer): CAMLayer(
            (linear_local): Conv1d(128, 32, kernel_size=(3,), stride=(1,), padding=(1,), bias=False)
            (linear1): Conv1d(128, 64, kernel_size=(1,), stride=(1,))
            (relu): ReLU(inplace=True)
            (linear2): Conv1d(64, 32, kernel_size=(1,), stride=(1,))
            (sigmoid): Sigmoid()
          )
        )
        (8): CAMDenseTDNNLayer(
          (nonlinear1): Sequential(
            (batchnorm): BatchNorm1d(384, eps=1e-05, momentum=0.1, affine=True, track_running_stats=True)
            (relu): ReLU(inplace=True)
          )
          (linear1): Conv1d(384, 128, kernel_size=(1,), stride=(1,), bias=False)
          (nonlinear2): Sequential(
            (batchnorm): BatchNorm1d(128, eps=1e-05, momentum=0.1, affine=True, track_running_stats=True)
            (relu): ReLU(inplace=True)
          )
          (cam_layer): CAMLayer(
            (linear_local): Conv1d(128, 32, kernel_size=(3,), stride=(1,), padding=(1,), bias=False)
            (linear1): Conv1d(128, 64, kernel_size=(1,), stride=(1,))
            (relu): ReLU(inplace=True)
            (linear2): Conv1d(64, 32, kernel_size=(1,), stride=(1,))
            (sigmoid): Sigmoid()
          )
        )
        (9): CAMDenseTDNNLayer(
          (nonlinear1): Sequential(
            (batchnorm): BatchNorm1d(416, eps=1e-05, momentum=0.1, affine=True, track_running_stats=True)
            (relu): ReLU(inplace=True)
          )
          (linear1): Conv1d(416, 128, kernel_size=(1,), stride=(1,), bias=False)
          (nonlinear2): Sequential(
            (batchnorm): BatchNorm1d(128, eps=1e-05, momentum=0.1, affine=True, track_running_stats=True)
            (relu): ReLU(inplace=True)
          )
          (cam_layer): CAMLayer(
            (linear_local): Conv1d(128, 32, kernel_size=(3,), stride=(1,), padding=(1,), bias=False)
            (linear1): Conv1d(128, 64, kernel_size=(1,), stride=(1,))
            (relu): ReLU(inplace=True)
            (linear2): Conv1d(64, 32, kernel_size=(1,), stride=(1,))
            (sigmoid): Sigmoid()
          )
        )
        (10): CAMDenseTDNNLayer(
          (nonlinear1): Sequential(
            (batchnorm): BatchNorm1d(448, eps=1e-05, momentum=0.1, affine=True, track_running_stats=True)
            (relu): ReLU(inplace=True)
          )
          (linear1): Conv1d(448, 128, kernel_size=(1,), stride=(1,), bias=False)
          (nonlinear2): Sequential(
            (batchnorm): BatchNorm1d(128, eps=1e-05, momentum=0.1, affine=True, track_running_stats=True)
            (relu): ReLU(inplace=True)
          )
          (cam_layer): CAMLayer(
            (linear_local): Conv1d(128, 32, kernel_size=(3,), stride=(1,), padding=(1,), bias=False)
            (linear1): Conv1d(128, 64, kernel_size=(1,), stride=(1,))
            (relu): ReLU(inplace=True)
            (linear2): Conv1d(64, 32, kernel_size=(1,), stride=(1,))
            (sigmoid): Sigmoid()
          )
        )
        (11): CAMDenseTDNNLayer(
          (nonlinear1): Sequential(
            (batchnorm): BatchNorm1d(480, eps=1e-05, momentum=0.1, affine=True, track_running_stats=True)
            (relu): ReLU(inplace=True)
          )
          (linear1): Conv1d(480, 128, kernel_size=(1,), stride=(1,), bias=False)
          (nonlinear2): Sequential(
            (batchnorm): BatchNorm1d(128, eps=1e-05, momentum=0.1, affine=True, track_running_stats=True)
            (relu): ReLU(inplace=True)
          )
          (cam_layer): CAMLayer(
            (linear_local): Conv1d(128, 32, kernel_size=(3,), stride=(1,), padding=(1,), bias=False)
            (linear1): Conv1d(128, 64, kernel_size=(1,), stride=(1,))
            (relu): ReLU(inplace=True)
            (linear2): Conv1d(64, 32, kernel_size=(1,), stride=(1,))
            (sigmoid): Sigmoid()
          )
        )
      )
      (transit1): TransitLayer(
        (nonlinear): Sequential(
          (batchnorm): BatchNorm1d(512, eps=1e-05, momentum=0.1, affine=True, track_running_stats=True)
          (relu): ReLU(inplace=True)
        )
        (linear): Conv1d(512, 256, kernel_size=(1,), stride=(1,), bias=False)
      )
      (block2): CAMDenseTDNNBlock(
        (0): CAMDenseTDNNLayer(
          (nonlinear1): Sequential(
            (batchnorm): BatchNorm1d(256, eps=1e-05, momentum=0.1, affine=True, track_running_stats=True)
            (relu): ReLU(inplace=True)
          )
          (linear1): Conv1d(256, 128, kernel_size=(1,), stride=(1,), bias=False)
          (nonlinear2): Sequential(
            (batchnorm): BatchNorm1d(128, eps=1e-05, momentum=0.1, affine=True, track_running_stats=True)
            (relu): ReLU(inplace=True)
          )
          (cam_layer): CAMLayer(
            (linear_local): Conv1d(128, 32, kernel_size=(3,), stride=(1,), padding=(2,), dilation=(2,), bias=False)
            (linear1): Conv1d(128, 64, kernel_size=(1,), stride=(1,))
            (relu): ReLU(inplace=True)
            (linear2): Conv1d(64, 32, kernel_size=(1,), stride=(1,))
            (sigmoid): Sigmoid()
          )
        )
        (1): CAMDenseTDNNLayer(
          (nonlinear1): Sequential(
            (batchnorm): BatchNorm1d(288, eps=1e-05, momentum=0.1, affine=True, track_running_stats=True)
            (relu): ReLU(inplace=True)
          )
          (linear1): Conv1d(288, 128, kernel_size=(1,), stride=(1,), bias=False)
          (nonlinear2): Sequential(
            (batchnorm): BatchNorm1d(128, eps=1e-05, momentum=0.1, affine=True, track_running_stats=True)
            (relu): ReLU(inplace=True)
          )
          (cam_layer): CAMLayer(
            (linear_local): Conv1d(128, 32, kernel_size=(3,), stride=(1,), padding=(2,), dilation=(2,), bias=False)
            (linear1): Conv1d(128, 64, kernel_size=(1,), stride=(1,))
            (relu): ReLU(inplace=True)
            (linear2): Conv1d(64, 32, kernel_size=(1,), stride=(1,))
            (sigmoid): Sigmoid()
          )
        )
        (2): CAMDenseTDNNLayer(
          (nonlinear1): Sequential(
            (batchnorm): BatchNorm1d(320, eps=1e-05, momentum=0.1, affine=True, track_running_stats=True)
            (relu): ReLU(inplace=True)
          )
          (linear1): Conv1d(320, 128, kernel_size=(1,), stride=(1,), bias=False)
          (nonlinear2): Sequential(
            (batchnorm): BatchNorm1d(128, eps=1e-05, momentum=0.1, affine=True, track_running_stats=True)
            (relu): ReLU(inplace=True)
          )
          (cam_layer): CAMLayer(
            (linear_local): Conv1d(128, 32, kernel_size=(3,), stride=(1,), padding=(2,), dilation=(2,), bias=False)
            (linear1): Conv1d(128, 64, kernel_size=(1,), stride=(1,))
            (relu): ReLU(inplace=True)
            (linear2): Conv1d(64, 32, kernel_size=(1,), stride=(1,))
            (sigmoid): Sigmoid()
          )
        )
        (3): CAMDenseTDNNLayer(
          (nonlinear1): Sequential(
            (batchnorm): BatchNorm1d(352, eps=1e-05, momentum=0.1, affine=True, track_running_stats=True)
            (relu): ReLU(inplace=True)
          )
          (linear1): Conv1d(352, 128, kernel_size=(1,), stride=(1,), bias=False)
          (nonlinear2): Sequential(
            (batchnorm): BatchNorm1d(128, eps=1e-05, momentum=0.1, affine=True, track_running_stats=True)
            (relu): ReLU(inplace=True)
          )
          (cam_layer): CAMLayer(
            (linear_local): Conv1d(128, 32, kernel_size=(3,), stride=(1,), padding=(2,), dilation=(2,), bias=False)
            (linear1): Conv1d(128, 64, kernel_size=(1,), stride=(1,))
            (relu): ReLU(inplace=True)
            (linear2): Conv1d(64, 32, kernel_size=(1,), stride=(1,))
            (sigmoid): Sigmoid()
          )
        )
        (4): CAMDenseTDNNLayer(
          (nonlinear1): Sequential(
            (batchnorm): BatchNorm1d(384, eps=1e-05, momentum=0.1, affine=True, track_running_stats=True)
            (relu): ReLU(inplace=True)
          )
          (linear1): Conv1d(384, 128, kernel_size=(1,), stride=(1,), bias=False)
          (nonlinear2): Sequential(
            (batchnorm): BatchNorm1d(128, eps=1e-05, momentum=0.1, affine=True, track_running_stats=True)
            (relu): ReLU(inplace=True)
          )
          (cam_layer): CAMLayer(
            (linear_local): Conv1d(128, 32, kernel_size=(3,), stride=(1,), padding=(2,), dilation=(2,), bias=False)
            (linear1): Conv1d(128, 64, kernel_size=(1,), stride=(1,))
            (relu): ReLU(inplace=True)
            (linear2): Conv1d(64, 32, kernel_size=(1,), stride=(1,))
            (sigmoid): Sigmoid()
          )
        )
        (5): CAMDenseTDNNLayer(
          (nonlinear1): Sequential(
            (batchnorm): BatchNorm1d(416, eps=1e-05, momentum=0.1, affine=True, track_running_stats=True)
            (relu): ReLU(inplace=True)
          )
          (linear1): Conv1d(416, 128, kernel_size=(1,), stride=(1,), bias=False)
          (nonlinear2): Sequential(
            (batchnorm): BatchNorm1d(128, eps=1e-05, momentum=0.1, affine=True, track_running_stats=True)
            (relu): ReLU(inplace=True)
          )
          (cam_layer): CAMLayer(
            (linear_local): Conv1d(128, 32, kernel_size=(3,), stride=(1,), padding=(2,), dilation=(2,), bias=False)
            (linear1): Conv1d(128, 64, kernel_size=(1,), stride=(1,))
            (relu): ReLU(inplace=True)
            (linear2): Conv1d(64, 32, kernel_size=(1,), stride=(1,))
            (sigmoid): Sigmoid()
          )
        )
        (6): CAMDenseTDNNLayer(
          (nonlinear1): Sequential(
            (batchnorm): BatchNorm1d(448, eps=1e-05, momentum=0.1, affine=True, track_running_stats=True)
            (relu): ReLU(inplace=True)
          )
          (linear1): Conv1d(448, 128, kernel_size=(1,), stride=(1,), bias=False)
          (nonlinear2): Sequential(
            (batchnorm): BatchNorm1d(128, eps=1e-05, momentum=0.1, affine=True, track_running_stats=True)
            (relu): ReLU(inplace=True)
          )
          (cam_layer): CAMLayer(
            (linear_local): Conv1d(128, 32, kernel_size=(3,), stride=(1,), padding=(2,), dilation=(2,), bias=False)
            (linear1): Conv1d(128, 64, kernel_size=(1,), stride=(1,))
            (relu): ReLU(inplace=True)
            (linear2): Conv1d(64, 32, kernel_size=(1,), stride=(1,))
            (sigmoid): Sigmoid()
          )
        )
        (7): CAMDenseTDNNLayer(
          (nonlinear1): Sequential(
            (batchnorm): BatchNorm1d(480, eps=1e-05, momentum=0.1, affine=True, track_running_stats=True)
            (relu): ReLU(inplace=True)
          )
          (linear1): Conv1d(480, 128, kernel_size=(1,), stride=(1,), bias=False)
          (nonlinear2): Sequential(
            (batchnorm): BatchNorm1d(128, eps=1e-05, momentum=0.1, affine=True, track_running_stats=True)
            (relu): ReLU(inplace=True)
          )
          (cam_layer): CAMLayer(
            (linear_local): Conv1d(128, 32, kernel_size=(3,), stride=(1,), padding=(2,), dilation=(2,), bias=False)
            (linear1): Conv1d(128, 64, kernel_size=(1,), stride=(1,))
            (relu): ReLU(inplace=True)
            (linear2): Conv1d(64, 32, kernel_size=(1,), stride=(1,))
            (sigmoid): Sigmoid()
          )
        )
        (8): CAMDenseTDNNLayer(
          (nonlinear1): Sequential(
            (batchnorm): BatchNorm1d(512, eps=1e-05, momentum=0.1, affine=True, track_running_stats=True)
            (relu): ReLU(inplace=True)
          )
          (linear1): Conv1d(512, 128, kernel_size=(1,), stride=(1,), bias=False)
          (nonlinear2): Sequential(
            (batchnorm): BatchNorm1d(128, eps=1e-05, momentum=0.1, affine=True, track_running_stats=True)
            (relu): ReLU(inplace=True)
          )
          (cam_layer): CAMLayer(
            (linear_local): Conv1d(128, 32, kernel_size=(3,), stride=(1,), padding=(2,), dilation=(2,), bias=False)
            (linear1): Conv1d(128, 64, kernel_size=(1,), stride=(1,))
            (relu): ReLU(inplace=True)
            (linear2): Conv1d(64, 32, kernel_size=(1,), stride=(1,))
            (sigmoid): Sigmoid()
          )
        )
        (9): CAMDenseTDNNLayer(
          (nonlinear1): Sequential(
            (batchnorm): BatchNorm1d(544, eps=1e-05, momentum=0.1, affine=True, track_running_stats=True)
            (relu): ReLU(inplace=True)
          )
          (linear1): Conv1d(544, 128, kernel_size=(1,), stride=(1,), bias=False)
          (nonlinear2): Sequential(
            (batchnorm): BatchNorm1d(128, eps=1e-05, momentum=0.1, affine=True, track_running_stats=True)
            (relu): ReLU(inplace=True)
          )
          (cam_layer): CAMLayer(
            (linear_local): Conv1d(128, 32, kernel_size=(3,), stride=(1,), padding=(2,), dilation=(2,), bias=False)
            (linear1): Conv1d(128, 64, kernel_size=(1,), stride=(1,))
            (relu): ReLU(inplace=True)
            (linear2): Conv1d(64, 32, kernel_size=(1,), stride=(1,))
            (sigmoid): Sigmoid()
          )
        )
        (10): CAMDenseTDNNLayer(
          (nonlinear1): Sequential(
            (batchnorm): BatchNorm1d(576, eps=1e-05, momentum=0.1, affine=True, track_running_stats=True)
            (relu): ReLU(inplace=True)
          )
          (linear1): Conv1d(576, 128, kernel_size=(1,), stride=(1,), bias=False)
          (nonlinear2): Sequential(
            (batchnorm): BatchNorm1d(128, eps=1e-05, momentum=0.1, affine=True, track_running_stats=True)
            (relu): ReLU(inplace=True)
          )
          (cam_layer): CAMLayer(
            (linear_local): Conv1d(128, 32, kernel_size=(3,), stride=(1,), padding=(2,), dilation=(2,), bias=False)
            (linear1): Conv1d(128, 64, kernel_size=(1,), stride=(1,))
            (relu): ReLU(inplace=True)
            (linear2): Conv1d(64, 32, kernel_size=(1,), stride=(1,))
            (sigmoid): Sigmoid()
          )
        )
        (11): CAMDenseTDNNLayer(
          (nonlinear1): Sequential(
            (batchnorm): BatchNorm1d(608, eps=1e-05, momentum=0.1, affine=True, track_running_stats=True)
            (relu): ReLU(inplace=True)
          )
          (linear1): Conv1d(608, 128, kernel_size=(1,), stride=(1,), bias=False)
          (nonlinear2): Sequential(
            (batchnorm): BatchNorm1d(128, eps=1e-05, momentum=0.1, affine=True, track_running_stats=True)
            (relu): ReLU(inplace=True)
          )
          (cam_layer): CAMLayer(
            (linear_local): Conv1d(128, 32, kernel_size=(3,), stride=(1,), padding=(2,), dilation=(2,), bias=False)
            (linear1): Conv1d(128, 64, kernel_size=(1,), stride=(1,))
            (relu): ReLU(inplace=True)
            (linear2): Conv1d(64, 32, kernel_size=(1,), stride=(1,))
            (sigmoid): Sigmoid()
          )
        )
        (12): CAMDenseTDNNLayer(
          (nonlinear1): Sequential(
            (batchnorm): BatchNorm1d(640, eps=1e-05, momentum=0.1, affine=True, track_running_stats=True)
            (relu): ReLU(inplace=True)
          )
          (linear1): Conv1d(640, 128, kernel_size=(1,), stride=(1,), bias=False)
          (nonlinear2): Sequential(
            (batchnorm): BatchNorm1d(128, eps=1e-05, momentum=0.1, affine=True, track_running_stats=True)
            (relu): ReLU(inplace=True)
          )
          (cam_layer): CAMLayer(
            (linear_local): Conv1d(128, 32, kernel_size=(3,), stride=(1,), padding=(2,), dilation=(2,), bias=False)
            (linear1): Conv1d(128, 64, kernel_size=(1,), stride=(1,))
            (relu): ReLU(inplace=True)
            (linear2): Conv1d(64, 32, kernel_size=(1,), stride=(1,))
            (sigmoid): Sigmoid()
          )
        )
        (13): CAMDenseTDNNLayer(
          (nonlinear1): Sequential(
            (batchnorm): BatchNorm1d(672, eps=1e-05, momentum=0.1, affine=True, track_running_stats=True)
            (relu): ReLU(inplace=True)
          )
          (linear1): Conv1d(672, 128, kernel_size=(1,), stride=(1,), bias=False)
          (nonlinear2): Sequential(
            (batchnorm): BatchNorm1d(128, eps=1e-05, momentum=0.1, affine=True, track_running_stats=True)
            (relu): ReLU(inplace=True)
          )
          (cam_layer): CAMLayer(
            (linear_local): Conv1d(128, 32, kernel_size=(3,), stride=(1,), padding=(2,), dilation=(2,), bias=False)
            (linear1): Conv1d(128, 64, kernel_size=(1,), stride=(1,))
            (relu): ReLU(inplace=True)
            (linear2): Conv1d(64, 32, kernel_size=(1,), stride=(1,))
            (sigmoid): Sigmoid()
          )
        )
        (14): CAMDenseTDNNLayer(
          (nonlinear1): Sequential(
            (batchnorm): BatchNorm1d(704, eps=1e-05, momentum=0.1, affine=True, track_running_stats=True)
            (relu): ReLU(inplace=True)
          )
          (linear1): Conv1d(704, 128, kernel_size=(1,), stride=(1,), bias=False)
          (nonlinear2): Sequential(
            (batchnorm): BatchNorm1d(128, eps=1e-05, momentum=0.1, affine=True, track_running_stats=True)
            (relu): ReLU(inplace=True)
          )
          (cam_layer): CAMLayer(
            (linear_local): Conv1d(128, 32, kernel_size=(3,), stride=(1,), padding=(2,), dilation=(2,), bias=False)
            (linear1): Conv1d(128, 64, kernel_size=(1,), stride=(1,))
            (relu): ReLU(inplace=True)
            (linear2): Conv1d(64, 32, kernel_size=(1,), stride=(1,))
            (sigmoid): Sigmoid()
          )
        )
        (15): CAMDenseTDNNLayer(
          (nonlinear1): Sequential(
            (batchnorm): BatchNorm1d(736, eps=1e-05, momentum=0.1, affine=True, track_running_stats=True)
            (relu): ReLU(inplace=True)
          )
          (linear1): Conv1d(736, 128, kernel_size=(1,), stride=(1,), bias=False)
          (nonlinear2): Sequential(
            (batchnorm): BatchNorm1d(128, eps=1e-05, momentum=0.1, affine=True, track_running_stats=True)
            (relu): ReLU(inplace=True)
          )
          (cam_layer): CAMLayer(
            (linear_local): Conv1d(128, 32, kernel_size=(3,), stride=(1,), padding=(2,), dilation=(2,), bias=False)
            (linear1): Conv1d(128, 64, kernel_size=(1,), stride=(1,))
            (relu): ReLU(inplace=True)
            (linear2): Conv1d(64, 32, kernel_size=(1,), stride=(1,))
            (sigmoid): Sigmoid()
          )
        )
        (16): CAMDenseTDNNLayer(
          (nonlinear1): Sequential(
            (batchnorm): BatchNorm1d(768, eps=1e-05, momentum=0.1, affine=True, track_running_stats=True)
            (relu): ReLU(inplace=True)
          )
          (linear1): Conv1d(768, 128, kernel_size=(1,), stride=(1,), bias=False)
          (nonlinear2): Sequential(
            (batchnorm): BatchNorm1d(128, eps=1e-05, momentum=0.1, affine=True, track_running_stats=True)
            (relu): ReLU(inplace=True)
          )
          (cam_layer): CAMLayer(
            (linear_local): Conv1d(128, 32, kernel_size=(3,), stride=(1,), padding=(2,), dilation=(2,), bias=False)
            (linear1): Conv1d(128, 64, kernel_size=(1,), stride=(1,))
            (relu): ReLU(inplace=True)
            (linear2): Conv1d(64, 32, kernel_size=(1,), stride=(1,))
            (sigmoid): Sigmoid()
          )
        )
        (17): CAMDenseTDNNLayer(
          (nonlinear1): Sequential(
            (batchnorm): BatchNorm1d(800, eps=1e-05, momentum=0.1, affine=True, track_running_stats=True)
            (relu): ReLU(inplace=True)
          )
          (linear1): Conv1d(800, 128, kernel_size=(1,), stride=(1,), bias=False)
          (nonlinear2): Sequential(
            (batchnorm): BatchNorm1d(128, eps=1e-05, momentum=0.1, affine=True, track_running_stats=True)
            (relu): ReLU(inplace=True)
          )
          (cam_layer): CAMLayer(
            (linear_local): Conv1d(128, 32, kernel_size=(3,), stride=(1,), padding=(2,), dilation=(2,), bias=False)
            (linear1): Conv1d(128, 64, kernel_size=(1,), stride=(1,))
            (relu): ReLU(inplace=True)
            (linear2): Conv1d(64, 32, kernel_size=(1,), stride=(1,))
            (sigmoid): Sigmoid()
          )
        )
        (18): CAMDenseTDNNLayer(
          (nonlinear1): Sequential(
            (batchnorm): BatchNorm1d(832, eps=1e-05, momentum=0.1, affine=True, track_running_stats=True)
            (relu): ReLU(inplace=True)
          )
          (linear1): Conv1d(832, 128, kernel_size=(1,), stride=(1,), bias=False)
          (nonlinear2): Sequential(
            (batchnorm): BatchNorm1d(128, eps=1e-05, momentum=0.1, affine=True, track_running_stats=True)
            (relu): ReLU(inplace=True)
          )
          (cam_layer): CAMLayer(
            (linear_local): Conv1d(128, 32, kernel_size=(3,), stride=(1,), padding=(2,), dilation=(2,), bias=False)
            (linear1): Conv1d(128, 64, kernel_size=(1,), stride=(1,))
            (relu): ReLU(inplace=True)
            (linear2): Conv1d(64, 32, kernel_size=(1,), stride=(1,))
            (sigmoid): Sigmoid()
          )
        )
        (19): CAMDenseTDNNLayer(
          (nonlinear1): Sequential(
            (batchnorm): BatchNorm1d(864, eps=1e-05, momentum=0.1, affine=True, track_running_stats=True)
            (relu): ReLU(inplace=True)
          )
          (linear1): Conv1d(864, 128, kernel_size=(1,), stride=(1,), bias=False)
          (nonlinear2): Sequential(
            (batchnorm): BatchNorm1d(128, eps=1e-05, momentum=0.1, affine=True, track_running_stats=True)
            (relu): ReLU(inplace=True)
          )
          (cam_layer): CAMLayer(
            (linear_local): Conv1d(128, 32, kernel_size=(3,), stride=(1,), padding=(2,), dilation=(2,), bias=False)
            (linear1): Conv1d(128, 64, kernel_size=(1,), stride=(1,))
            (relu): ReLU(inplace=True)
            (linear2): Conv1d(64, 32, kernel_size=(1,), stride=(1,))
            (sigmoid): Sigmoid()
          )
        )
        (20): CAMDenseTDNNLayer(
          (nonlinear1): Sequential(
            (batchnorm): BatchNorm1d(896, eps=1e-05, momentum=0.1, affine=True, track_running_stats=True)
            (relu): ReLU(inplace=True)
          )
          (linear1): Conv1d(896, 128, kernel_size=(1,), stride=(1,), bias=False)
          (nonlinear2): Sequential(
            (batchnorm): BatchNorm1d(128, eps=1e-05, momentum=0.1, affine=True, track_running_stats=True)
            (relu): ReLU(inplace=True)
          )
          (cam_layer): CAMLayer(
            (linear_local): Conv1d(128, 32, kernel_size=(3,), stride=(1,), padding=(2,), dilation=(2,), bias=False)
            (linear1): Conv1d(128, 64, kernel_size=(1,), stride=(1,))
            (relu): ReLU(inplace=True)
            (linear2): Conv1d(64, 32, kernel_size=(1,), stride=(1,))
            (sigmoid): Sigmoid()
          )
        )
        (21): CAMDenseTDNNLayer(
          (nonlinear1): Sequential(
            (batchnorm): BatchNorm1d(928, eps=1e-05, momentum=0.1, affine=True, track_running_stats=True)
            (relu): ReLU(inplace=True)
          )
          (linear1): Conv1d(928, 128, kernel_size=(1,), stride=(1,), bias=False)
          (nonlinear2): Sequential(
            (batchnorm): BatchNorm1d(128, eps=1e-05, momentum=0.1, affine=True, track_running_stats=True)
            (relu): ReLU(inplace=True)
          )
          (cam_layer): CAMLayer(
            (linear_local): Conv1d(128, 32, kernel_size=(3,), stride=(1,), padding=(2,), dilation=(2,), bias=False)
            (linear1): Conv1d(128, 64, kernel_size=(1,), stride=(1,))
            (relu): ReLU(inplace=True)
            (linear2): Conv1d(64, 32, kernel_size=(1,), stride=(1,))
            (sigmoid): Sigmoid()
          )
        )
        (22): CAMDenseTDNNLayer(
          (nonlinear1): Sequential(
            (batchnorm): BatchNorm1d(960, eps=1e-05, momentum=0.1, affine=True, track_running_stats=True)
            (relu): ReLU(inplace=True)
          )
          (linear1): Conv1d(960, 128, kernel_size=(1,), stride=(1,), bias=False)
          (nonlinear2): Sequential(
            (batchnorm): BatchNorm1d(128, eps=1e-05, momentum=0.1, affine=True, track_running_stats=True)
            (relu): ReLU(inplace=True)
          )
          (cam_layer): CAMLayer(
            (linear_local): Conv1d(128, 32, kernel_size=(3,), stride=(1,), padding=(2,), dilation=(2,), bias=False)
            (linear1): Conv1d(128, 64, kernel_size=(1,), stride=(1,))
            (relu): ReLU(inplace=True)
            (linear2): Conv1d(64, 32, kernel_size=(1,), stride=(1,))
            (sigmoid): Sigmoid()
          )
        )
        (23): CAMDenseTDNNLayer(
          (nonlinear1): Sequential(
            (batchnorm): BatchNorm1d(992, eps=1e-05, momentum=0.1, affine=True, track_running_stats=True)
            (relu): ReLU(inplace=True)
          )
          (linear1): Conv1d(992, 128, kernel_size=(1,), stride=(1,), bias=False)
          (nonlinear2): Sequential(
            (batchnorm): BatchNorm1d(128, eps=1e-05, momentum=0.1, affine=True, track_running_stats=True)
            (relu): ReLU(inplace=True)
          )
          (cam_layer): CAMLayer(
            (linear_local): Conv1d(128, 32, kernel_size=(3,), stride=(1,), padding=(2,), dilation=(2,), bias=False)
            (linear1): Conv1d(128, 64, kernel_size=(1,), stride=(1,))
            (relu): ReLU(inplace=True)
            (linear2): Conv1d(64, 32, kernel_size=(1,), stride=(1,))
            (sigmoid): Sigmoid()
          )
        )
      )
      (transit2): TransitLayer(
        (nonlinear): Sequential(
          (batchnorm): BatchNorm1d(1024, eps=1e-05, momentum=0.1, affine=True, track_running_stats=True)
          (relu): ReLU(inplace=True)
        )
        (linear): Conv1d(1024, 512, kernel_size=(1,), stride=(1,), bias=False)
      )
      (block3): CAMDenseTDNNBlock(
        (0): CAMDenseTDNNLayer(
          (nonlinear1): Sequential(
            (batchnorm): BatchNorm1d(512, eps=1e-05, momentum=0.1, affine=True, track_running_stats=True)
            (relu): ReLU(inplace=True)
          )
          (linear1): Conv1d(512, 128, kernel_size=(1,), stride=(1,), bias=False)
          (nonlinear2): Sequential(
            (batchnorm): BatchNorm1d(128, eps=1e-05, momentum=0.1, affine=True, track_running_stats=True)
            (relu): ReLU(inplace=True)
          )
          (cam_layer): CAMLayer(
            (linear_local): Conv1d(128, 32, kernel_size=(3,), stride=(1,), padding=(2,), dilation=(2,), bias=False)
            (linear1): Conv1d(128, 64, kernel_size=(1,), stride=(1,))
            (relu): ReLU(inplace=True)
            (linear2): Conv1d(64, 32, kernel_size=(1,), stride=(1,))
            (sigmoid): Sigmoid()
          )
        )
        (1): CAMDenseTDNNLayer(
          (nonlinear1): Sequential(
            (batchnorm): BatchNorm1d(544, eps=1e-05, momentum=0.1, affine=True, track_running_stats=True)
            (relu): ReLU(inplace=True)
          )
          (linear1): Conv1d(544, 128, kernel_size=(1,), stride=(1,), bias=False)
          (nonlinear2): Sequential(
            (batchnorm): BatchNorm1d(128, eps=1e-05, momentum=0.1, affine=True, track_running_stats=True)
            (relu): ReLU(inplace=True)
          )
          (cam_layer): CAMLayer(
            (linear_local): Conv1d(128, 32, kernel_size=(3,), stride=(1,), padding=(2,), dilation=(2,), bias=False)
            (linear1): Conv1d(128, 64, kernel_size=(1,), stride=(1,))
            (relu): ReLU(inplace=True)
            (linear2): Conv1d(64, 32, kernel_size=(1,), stride=(1,))
            (sigmoid): Sigmoid()
          )
        )
        (2): CAMDenseTDNNLayer(
          (nonlinear1): Sequential(
            (batchnorm): BatchNorm1d(576, eps=1e-05, momentum=0.1, affine=True, track_running_stats=True)
            (relu): ReLU(inplace=True)
          )
          (linear1): Conv1d(576, 128, kernel_size=(1,), stride=(1,), bias=False)
          (nonlinear2): Sequential(
            (batchnorm): BatchNorm1d(128, eps=1e-05, momentum=0.1, affine=True, track_running_stats=True)
            (relu): ReLU(inplace=True)
          )
          (cam_layer): CAMLayer(
            (linear_local): Conv1d(128, 32, kernel_size=(3,), stride=(1,), padding=(2,), dilation=(2,), bias=False)
            (linear1): Conv1d(128, 64, kernel_size=(1,), stride=(1,))
            (relu): ReLU(inplace=True)
            (linear2): Conv1d(64, 32, kernel_size=(1,), stride=(1,))
            (sigmoid): Sigmoid()
          )
        )
        (3): CAMDenseTDNNLayer(
          (nonlinear1): Sequential(
            (batchnorm): BatchNorm1d(608, eps=1e-05, momentum=0.1, affine=True, track_running_stats=True)
            (relu): ReLU(inplace=True)
          )
          (linear1): Conv1d(608, 128, kernel_size=(1,), stride=(1,), bias=False)
          (nonlinear2): Sequential(
            (batchnorm): BatchNorm1d(128, eps=1e-05, momentum=0.1, affine=True, track_running_stats=True)
            (relu): ReLU(inplace=True)
          )
          (cam_layer): CAMLayer(
            (linear_local): Conv1d(128, 32, kernel_size=(3,), stride=(1,), padding=(2,), dilation=(2,), bias=False)
            (linear1): Conv1d(128, 64, kernel_size=(1,), stride=(1,))
            (relu): ReLU(inplace=True)
            (linear2): Conv1d(64, 32, kernel_size=(1,), stride=(1,))
            (sigmoid): Sigmoid()
          )
        )
        (4): CAMDenseTDNNLayer(
          (nonlinear1): Sequential(
            (batchnorm): BatchNorm1d(640, eps=1e-05, momentum=0.1, affine=True, track_running_stats=True)
            (relu): ReLU(inplace=True)
          )
          (linear1): Conv1d(640, 128, kernel_size=(1,), stride=(1,), bias=False)
          (nonlinear2): Sequential(
            (batchnorm): BatchNorm1d(128, eps=1e-05, momentum=0.1, affine=True, track_running_stats=True)
            (relu): ReLU(inplace=True)
          )
          (cam_layer): CAMLayer(
            (linear_local): Conv1d(128, 32, kernel_size=(3,), stride=(1,), padding=(2,), dilation=(2,), bias=False)
            (linear1): Conv1d(128, 64, kernel_size=(1,), stride=(1,))
            (relu): ReLU(inplace=True)
            (linear2): Conv1d(64, 32, kernel_size=(1,), stride=(1,))
            (sigmoid): Sigmoid()
          )
        )
        (5): CAMDenseTDNNLayer(
          (nonlinear1): Sequential(
            (batchnorm): BatchNorm1d(672, eps=1e-05, momentum=0.1, affine=True, track_running_stats=True)
            (relu): ReLU(inplace=True)
          )
          (linear1): Conv1d(672, 128, kernel_size=(1,), stride=(1,), bias=False)
          (nonlinear2): Sequential(
            (batchnorm): BatchNorm1d(128, eps=1e-05, momentum=0.1, affine=True, track_running_stats=True)
            (relu): ReLU(inplace=True)
          )
          (cam_layer): CAMLayer(
            (linear_local): Conv1d(128, 32, kernel_size=(3,), stride=(1,), padding=(2,), dilation=(2,), bias=False)
            (linear1): Conv1d(128, 64, kernel_size=(1,), stride=(1,))
            (relu): ReLU(inplace=True)
            (linear2): Conv1d(64, 32, kernel_size=(1,), stride=(1,))
            (sigmoid): Sigmoid()
          )
        )
        (6): CAMDenseTDNNLayer(
          (nonlinear1): Sequential(
            (batchnorm): BatchNorm1d(704, eps=1e-05, momentum=0.1, affine=True, track_running_stats=True)
            (relu): ReLU(inplace=True)
          )
          (linear1): Conv1d(704, 128, kernel_size=(1,), stride=(1,), bias=False)
          (nonlinear2): Sequential(
            (batchnorm): BatchNorm1d(128, eps=1e-05, momentum=0.1, affine=True, track_running_stats=True)
            (relu): ReLU(inplace=True)
          )
          (cam_layer): CAMLayer(
            (linear_local): Conv1d(128, 32, kernel_size=(3,), stride=(1,), padding=(2,), dilation=(2,), bias=False)
            (linear1): Conv1d(128, 64, kernel_size=(1,), stride=(1,))
            (relu): ReLU(inplace=True)
            (linear2): Conv1d(64, 32, kernel_size=(1,), stride=(1,))
            (sigmoid): Sigmoid()
          )
        )
        (7): CAMDenseTDNNLayer(
          (nonlinear1): Sequential(
            (batchnorm): BatchNorm1d(736, eps=1e-05, momentum=0.1, affine=True, track_running_stats=True)
            (relu): ReLU(inplace=True)
          )
          (linear1): Conv1d(736, 128, kernel_size=(1,), stride=(1,), bias=False)
          (nonlinear2): Sequential(
            (batchnorm): BatchNorm1d(128, eps=1e-05, momentum=0.1, affine=True, track_running_stats=True)
            (relu): ReLU(inplace=True)
          )
          (cam_layer): CAMLayer(
            (linear_local): Conv1d(128, 32, kernel_size=(3,), stride=(1,), padding=(2,), dilation=(2,), bias=False)
            (linear1): Conv1d(128, 64, kernel_size=(1,), stride=(1,))
            (relu): ReLU(inplace=True)
            (linear2): Conv1d(64, 32, kernel_size=(1,), stride=(1,))
            (sigmoid): Sigmoid()
          )
        )
        (8): CAMDenseTDNNLayer(
          (nonlinear1): Sequential(
            (batchnorm): BatchNorm1d(768, eps=1e-05, momentum=0.1, affine=True, track_running_stats=True)
            (relu): ReLU(inplace=True)
          )
          (linear1): Conv1d(768, 128, kernel_size=(1,), stride=(1,), bias=False)
          (nonlinear2): Sequential(
            (batchnorm): BatchNorm1d(128, eps=1e-05, momentum=0.1, affine=True, track_running_stats=True)
            (relu): ReLU(inplace=True)
          )
          (cam_layer): CAMLayer(
            (linear_local): Conv1d(128, 32, kernel_size=(3,), stride=(1,), padding=(2,), dilation=(2,), bias=False)
            (linear1): Conv1d(128, 64, kernel_size=(1,), stride=(1,))
            (relu): ReLU(inplace=True)
            (linear2): Conv1d(64, 32, kernel_size=(1,), stride=(1,))
            (sigmoid): Sigmoid()
          )
        )
        (9): CAMDenseTDNNLayer(
          (nonlinear1): Sequential(
            (batchnorm): BatchNorm1d(800, eps=1e-05, momentum=0.1, affine=True, track_running_stats=True)
            (relu): ReLU(inplace=True)
          )
          (linear1): Conv1d(800, 128, kernel_size=(1,), stride=(1,), bias=False)
          (nonlinear2): Sequential(
            (batchnorm): BatchNorm1d(128, eps=1e-05, momentum=0.1, affine=True, track_running_stats=True)
            (relu): ReLU(inplace=True)
          )
          (cam_layer): CAMLayer(
            (linear_local): Conv1d(128, 32, kernel_size=(3,), stride=(1,), padding=(2,), dilation=(2,), bias=False)
            (linear1): Conv1d(128, 64, kernel_size=(1,), stride=(1,))
            (relu): ReLU(inplace=True)
            (linear2): Conv1d(64, 32, kernel_size=(1,), stride=(1,))
            (sigmoid): Sigmoid()
          )
        )
        (10): CAMDenseTDNNLayer(
          (nonlinear1): Sequential(
            (batchnorm): BatchNorm1d(832, eps=1e-05, momentum=0.1, affine=True, track_running_stats=True)
            (relu): ReLU(inplace=True)
          )
          (linear1): Conv1d(832, 128, kernel_size=(1,), stride=(1,), bias=False)
          (nonlinear2): Sequential(
            (batchnorm): BatchNorm1d(128, eps=1e-05, momentum=0.1, affine=True, track_running_stats=True)
            (relu): ReLU(inplace=True)
          )
          (cam_layer): CAMLayer(
            (linear_local): Conv1d(128, 32, kernel_size=(3,), stride=(1,), padding=(2,), dilation=(2,), bias=False)
            (linear1): Conv1d(128, 64, kernel_size=(1,), stride=(1,))
            (relu): ReLU(inplace=True)
            (linear2): Conv1d(64, 32, kernel_size=(1,), stride=(1,))
            (sigmoid): Sigmoid()
          )
        )
        (11): CAMDenseTDNNLayer(
          (nonlinear1): Sequential(
            (batchnorm): BatchNorm1d(864, eps=1e-05, momentum=0.1, affine=True, track_running_stats=True)
            (relu): ReLU(inplace=True)
          )
          (linear1): Conv1d(864, 128, kernel_size=(1,), stride=(1,), bias=False)
          (nonlinear2): Sequential(
            (batchnorm): BatchNorm1d(128, eps=1e-05, momentum=0.1, affine=True, track_running_stats=True)
            (relu): ReLU(inplace=True)
          )
          (cam_layer): CAMLayer(
            (linear_local): Conv1d(128, 32, kernel_size=(3,), stride=(1,), padding=(2,), dilation=(2,), bias=False)
            (linear1): Conv1d(128, 64, kernel_size=(1,), stride=(1,))
            (relu): ReLU(inplace=True)
            (linear2): Conv1d(64, 32, kernel_size=(1,), stride=(1,))
            (sigmoid): Sigmoid()
          )
        )
        (12): CAMDenseTDNNLayer(
          (nonlinear1): Sequential(
            (batchnorm): BatchNorm1d(896, eps=1e-05, momentum=0.1, affine=True, track_running_stats=True)
            (relu): ReLU(inplace=True)
          )
          (linear1): Conv1d(896, 128, kernel_size=(1,), stride=(1,), bias=False)
          (nonlinear2): Sequential(
            (batchnorm): BatchNorm1d(128, eps=1e-05, momentum=0.1, affine=True, track_running_stats=True)
            (relu): ReLU(inplace=True)
          )
          (cam_layer): CAMLayer(
            (linear_local): Conv1d(128, 32, kernel_size=(3,), stride=(1,), padding=(2,), dilation=(2,), bias=False)
            (linear1): Conv1d(128, 64, kernel_size=(1,), stride=(1,))
            (relu): ReLU(inplace=True)
            (linear2): Conv1d(64, 32, kernel_size=(1,), stride=(1,))
            (sigmoid): Sigmoid()
          )
        )
        (13): CAMDenseTDNNLayer(
          (nonlinear1): Sequential(
            (batchnorm): BatchNorm1d(928, eps=1e-05, momentum=0.1, affine=True, track_running_stats=True)
            (relu): ReLU(inplace=True)
          )
          (linear1): Conv1d(928, 128, kernel_size=(1,), stride=(1,), bias=False)
          (nonlinear2): Sequential(
            (batchnorm): BatchNorm1d(128, eps=1e-05, momentum=0.1, affine=True, track_running_stats=True)
            (relu): ReLU(inplace=True)
          )
          (cam_layer): CAMLayer(
            (linear_local): Conv1d(128, 32, kernel_size=(3,), stride=(1,), padding=(2,), dilation=(2,), bias=False)
            (linear1): Conv1d(128, 64, kernel_size=(1,), stride=(1,))
            (relu): ReLU(inplace=True)
            (linear2): Conv1d(64, 32, kernel_size=(1,), stride=(1,))
            (sigmoid): Sigmoid()
          )
        )
        (14): CAMDenseTDNNLayer(
          (nonlinear1): Sequential(
            (batchnorm): BatchNorm1d(960, eps=1e-05, momentum=0.1, affine=True, track_running_stats=True)
            (relu): ReLU(inplace=True)
          )
          (linear1): Conv1d(960, 128, kernel_size=(1,), stride=(1,), bias=False)
          (nonlinear2): Sequential(
            (batchnorm): BatchNorm1d(128, eps=1e-05, momentum=0.1, affine=True, track_running_stats=True)
            (relu): ReLU(inplace=True)
          )
          (cam_layer): CAMLayer(
            (linear_local): Conv1d(128, 32, kernel_size=(3,), stride=(1,), padding=(2,), dilation=(2,), bias=False)
            (linear1): Conv1d(128, 64, kernel_size=(1,), stride=(1,))
            (relu): ReLU(inplace=True)
            (linear2): Conv1d(64, 32, kernel_size=(1,), stride=(1,))
            (sigmoid): Sigmoid()
          )
        )
        (15): CAMDenseTDNNLayer(
          (nonlinear1): Sequential(
            (batchnorm): BatchNorm1d(992, eps=1e-05, momentum=0.1, affine=True, track_running_stats=True)
            (relu): ReLU(inplace=True)
          )
          (linear1): Conv1d(992, 128, kernel_size=(1,), stride=(1,), bias=False)
          (nonlinear2): Sequential(
            (batchnorm): BatchNorm1d(128, eps=1e-05, momentum=0.1, affine=True, track_running_stats=True)
            (relu): ReLU(inplace=True)
          )
          (cam_layer): CAMLayer(
            (linear_local): Conv1d(128, 32, kernel_size=(3,), stride=(1,), padding=(2,), dilation=(2,), bias=False)
            (linear1): Conv1d(128, 64, kernel_size=(1,), stride=(1,))
            (relu): ReLU(inplace=True)
            (linear2): Conv1d(64, 32, kernel_size=(1,), stride=(1,))
            (sigmoid): Sigmoid()
          )
        )
      )
      (transit3): TransitLayer(
        (nonlinear): Sequential(
          (batchnorm): BatchNorm1d(1024, eps=1e-05, momentum=0.1, affine=True, track_running_stats=True)
          (relu): ReLU(inplace=True)
        )
        (linear): Conv1d(1024, 512, kernel_size=(1,), stride=(1,), bias=False)
      )
      (out_nonlinear): Sequential(
        (batchnorm): BatchNorm1d(512, eps=1e-05, momentum=0.1, affine=True, track_running_stats=True)
        (relu): ReLU(inplace=True)
      )
      (stats): StatsPool()
      (dense): DenseLayer(
        (linear): Conv1d(1024, 192, kernel_size=(1,), stride=(1,), bias=False)
        (nonlinear): Sequential(
          (batchnorm): BatchNorm1d(192, eps=1e-05, momentum=0.1, affine=False, track_running_stats=True)
        )
      )
    )
  )
  (speech_down_or_up): Sequential(
    (0): Conv1d(512, 192, kernel_size=(5,), stride=(2,), padding=(2,))
    (1): BatchNorm1D(
      (bn): BatchNorm1d(192, eps=1e-05, momentum=0.1, affine=True, track_running_stats=True)
    )
    (2): ReLU()
  )
  (pos_encoder): PositionalEncoding(
    (dropout): Dropout(p=0.1, inplace=False)
  )
  (single_backend): Conformer(
    (conformer_layers): ModuleList(
      (0-1): 2 x ConformerLayer(
        (ffn1): _FeedForwardModule(
          (sequential): Sequential(
            (0): LayerNorm((384,), eps=1e-05, elementwise_affine=True)
            (1): Linear(in_features=384, out_features=1536, bias=True)
            (2): SiLU()
            (3): Dropout(p=0.0, inplace=False)
            (4): Linear(in_features=1536, out_features=384, bias=True)
            (5): Dropout(p=0.0, inplace=False)
          )
        )
        (self_attn_layer_norm): LayerNorm((384,), eps=1e-05, elementwise_affine=True)
        (self_attn): MultiheadAttention(
          (out_proj): NonDynamicallyQuantizableLinear(in_features=384, out_features=384, bias=True)
        )
        (self_attn_dropout): Dropout(p=0.0, inplace=False)
        (conv_module): _ConvolutionModule(
          (layer_norm): LayerNorm((384,), eps=1e-05, elementwise_affine=True)
          (sequential): Sequential(
            (0): Conv1d(384, 768, kernel_size=(1,), stride=(1,))
            (1): GLU(dim=1)
            (2): Conv1d(384, 384, kernel_size=(31,), stride=(1,), padding=(15,), groups=384)
            (3): BatchNorm1d(384, eps=1e-05, momentum=0.1, affine=True, track_running_stats=True)
            (4): SiLU()
            (5): Conv1d(384, 384, kernel_size=(1,), stride=(1,))
            (6): Dropout(p=0.0, inplace=False)
          )
        )
        (ffn2): _FeedForwardModule(
          (sequential): Sequential(
            (0): LayerNorm((384,), eps=1e-05, elementwise_affine=True)
            (1): Linear(in_features=384, out_features=1536, bias=True)
            (2): SiLU()
            (3): Dropout(p=0.0, inplace=False)
            (4): Linear(in_features=1536, out_features=384, bias=True)
            (5): Dropout(p=0.0, inplace=False)
          )
        )
        (final_layer_norm): LayerNorm((384,), eps=1e-05, elementwise_affine=True)
      )
    )
  )
  (backend_down): Sequential(
    (0): Conv1d(2688, 384, kernel_size=(5,), stride=(1,), padding=(2,))
    (1): BatchNorm1D(
      (bn): BatchNorm1d(384, eps=1e-05, momentum=0.1, affine=True, track_running_stats=True)
    )
    (2): ReLU()
  )
  (multi_backend): Conformer(
    (conformer_layers): ModuleList(
      (0-1): 2 x ConformerLayer(
        (ffn1): _FeedForwardModule(
          (sequential): Sequential(
            (0): LayerNorm((384,), eps=1e-05, elementwise_affine=True)
            (1): Linear(in_features=384, out_features=1536, bias=True)
            (2): SiLU()
            (3): Dropout(p=0.0, inplace=False)
            (4): Linear(in_features=1536, out_features=384, bias=True)
            (5): Dropout(p=0.0, inplace=False)
          )
        )
        (self_attn_layer_norm): LayerNorm((384,), eps=1e-05, elementwise_affine=True)
        (self_attn): MultiheadAttention(
          (out_proj): NonDynamicallyQuantizableLinear(in_features=384, out_features=384, bias=True)
        )
        (self_attn_dropout): Dropout(p=0.0, inplace=False)
        (conv_module): _ConvolutionModule(
          (layer_norm): LayerNorm((384,), eps=1e-05, elementwise_affine=True)
          (sequential): Sequential(
            (0): Conv1d(384, 768, kernel_size=(1,), stride=(1,))
            (1): GLU(dim=1)
            (2): Conv1d(384, 384, kernel_size=(31,), stride=(1,), padding=(15,), groups=384)
            (3): BatchNorm1d(384, eps=1e-05, momentum=0.1, affine=True, track_running_stats=True)
            (4): SiLU()
            (5): Conv1d(384, 384, kernel_size=(1,), stride=(1,))
            (6): Dropout(p=0.0, inplace=False)
          )
        )
        (ffn2): _FeedForwardModule(
          (sequential): Sequential(
            (0): LayerNorm((384,), eps=1e-05, elementwise_affine=True)
            (1): Linear(in_features=384, out_features=1536, bias=True)
            (2): SiLU()
            (3): Dropout(p=0.0, inplace=False)
            (4): Linear(in_features=1536, out_features=384, bias=True)
            (5): Dropout(p=0.0, inplace=False)
          )
        )
        (final_layer_norm): LayerNorm((384,), eps=1e-05, elementwise_affine=True)
      )
    )
  )
  (fc): Linear(in_features=384, out_features=7, bias=True)
)
2025-02-08 11:20:37,018 (train_accelerate_ddp:949) INFO: model: TSVADModel(
  (rs_dropout): Dropout(p=0.1, inplace=False)
  (speech_encoder): CAMPPlus(
    (head): FCM(
      (conv1): Conv2d(1, 32, kernel_size=(3, 3), stride=(1, 1), padding=(1, 1), bias=False)
      (bn1): BatchNorm2d(32, eps=1e-05, momentum=0.1, affine=True, track_running_stats=True)
      (layer1): Sequential(
        (0): BasicResBlock(
          (conv1): Conv2d(32, 32, kernel_size=(3, 3), stride=(2, 1), padding=(1, 1), bias=False)
          (bn1): BatchNorm2d(32, eps=1e-05, momentum=0.1, affine=True, track_running_stats=True)
          (conv2): Conv2d(32, 32, kernel_size=(3, 3), stride=(1, 1), padding=(1, 1), bias=False)
          (bn2): BatchNorm2d(32, eps=1e-05, momentum=0.1, affine=True, track_running_stats=True)
          (shortcut): Sequential(
            (0): Conv2d(32, 32, kernel_size=(1, 1), stride=(2, 1), bias=False)
            (1): BatchNorm2d(32, eps=1e-05, momentum=0.1, affine=True, track_running_stats=True)
          )
        )
        (1): BasicResBlock(
          (conv1): Conv2d(32, 32, kernel_size=(3, 3), stride=(1, 1), padding=(1, 1), bias=False)
          (bn1): BatchNorm2d(32, eps=1e-05, momentum=0.1, affine=True, track_running_stats=True)
          (conv2): Conv2d(32, 32, kernel_size=(3, 3), stride=(1, 1), padding=(1, 1), bias=False)
          (bn2): BatchNorm2d(32, eps=1e-05, momentum=0.1, affine=True, track_running_stats=True)
          (shortcut): Sequential()
        )
      )
      (layer2): Sequential(
        (0): BasicResBlock(
          (conv1): Conv2d(32, 32, kernel_size=(3, 3), stride=(2, 1), padding=(1, 1), bias=False)
          (bn1): BatchNorm2d(32, eps=1e-05, momentum=0.1, affine=True, track_running_stats=True)
          (conv2): Conv2d(32, 32, kernel_size=(3, 3), stride=(1, 1), padding=(1, 1), bias=False)
          (bn2): BatchNorm2d(32, eps=1e-05, momentum=0.1, affine=True, track_running_stats=True)
          (shortcut): Sequential(
            (0): Conv2d(32, 32, kernel_size=(1, 1), stride=(2, 1), bias=False)
            (1): BatchNorm2d(32, eps=1e-05, momentum=0.1, affine=True, track_running_stats=True)
          )
        )
        (1): BasicResBlock(
          (conv1): Conv2d(32, 32, kernel_size=(3, 3), stride=(1, 1), padding=(1, 1), bias=False)
          (bn1): BatchNorm2d(32, eps=1e-05, momentum=0.1, affine=True, track_running_stats=True)
          (conv2): Conv2d(32, 32, kernel_size=(3, 3), stride=(1, 1), padding=(1, 1), bias=False)
          (bn2): BatchNorm2d(32, eps=1e-05, momentum=0.1, affine=True, track_running_stats=True)
          (shortcut): Sequential()
        )
      )
      (conv2): Conv2d(32, 32, kernel_size=(3, 3), stride=(2, 1), padding=(1, 1), bias=False)
      (bn2): BatchNorm2d(32, eps=1e-05, momentum=0.1, affine=True, track_running_stats=True)
    )
    (xvector): Sequential(
      (tdnn): TDNNLayer(
        (linear): Conv1d(320, 128, kernel_size=(5,), stride=(2,), padding=(2,), bias=False)
        (nonlinear): Sequential(
          (batchnorm): BatchNorm1d(128, eps=1e-05, momentum=0.1, affine=True, track_running_stats=True)
          (relu): ReLU(inplace=True)
        )
      )
      (block1): CAMDenseTDNNBlock(
        (0): CAMDenseTDNNLayer(
          (nonlinear1): Sequential(
            (batchnorm): BatchNorm1d(128, eps=1e-05, momentum=0.1, affine=True, track_running_stats=True)
            (relu): ReLU(inplace=True)
          )
          (linear1): Conv1d(128, 128, kernel_size=(1,), stride=(1,), bias=False)
          (nonlinear2): Sequential(
            (batchnorm): BatchNorm1d(128, eps=1e-05, momentum=0.1, affine=True, track_running_stats=True)
            (relu): ReLU(inplace=True)
          )
          (cam_layer): CAMLayer(
            (linear_local): Conv1d(128, 32, kernel_size=(3,), stride=(1,), padding=(1,), bias=False)
            (linear1): Conv1d(128, 64, kernel_size=(1,), stride=(1,))
            (relu): ReLU(inplace=True)
            (linear2): Conv1d(64, 32, kernel_size=(1,), stride=(1,))
            (sigmoid): Sigmoid()
          )
        )
        (1): CAMDenseTDNNLayer(
          (nonlinear1): Sequential(
            (batchnorm): BatchNorm1d(160, eps=1e-05, momentum=0.1, affine=True, track_running_stats=True)
            (relu): ReLU(inplace=True)
          )
          (linear1): Conv1d(160, 128, kernel_size=(1,), stride=(1,), bias=False)
          (nonlinear2): Sequential(
            (batchnorm): BatchNorm1d(128, eps=1e-05, momentum=0.1, affine=True, track_running_stats=True)
            (relu): ReLU(inplace=True)
          )
          (cam_layer): CAMLayer(
            (linear_local): Conv1d(128, 32, kernel_size=(3,), stride=(1,), padding=(1,), bias=False)
            (linear1): Conv1d(128, 64, kernel_size=(1,), stride=(1,))
            (relu): ReLU(inplace=True)
            (linear2): Conv1d(64, 32, kernel_size=(1,), stride=(1,))
            (sigmoid): Sigmoid()
          )
        )
        (2): CAMDenseTDNNLayer(
          (nonlinear1): Sequential(
            (batchnorm): BatchNorm1d(192, eps=1e-05, momentum=0.1, affine=True, track_running_stats=True)
            (relu): ReLU(inplace=True)
          )
          (linear1): Conv1d(192, 128, kernel_size=(1,), stride=(1,), bias=False)
          (nonlinear2): Sequential(
            (batchnorm): BatchNorm1d(128, eps=1e-05, momentum=0.1, affine=True, track_running_stats=True)
            (relu): ReLU(inplace=True)
          )
          (cam_layer): CAMLayer(
            (linear_local): Conv1d(128, 32, kernel_size=(3,), stride=(1,), padding=(1,), bias=False)
            (linear1): Conv1d(128, 64, kernel_size=(1,), stride=(1,))
            (relu): ReLU(inplace=True)
            (linear2): Conv1d(64, 32, kernel_size=(1,), stride=(1,))
            (sigmoid): Sigmoid()
          )
        )
        (3): CAMDenseTDNNLayer(
          (nonlinear1): Sequential(
            (batchnorm): BatchNorm1d(224, eps=1e-05, momentum=0.1, affine=True, track_running_stats=True)
            (relu): ReLU(inplace=True)
          )
          (linear1): Conv1d(224, 128, kernel_size=(1,), stride=(1,), bias=False)
          (nonlinear2): Sequential(
            (batchnorm): BatchNorm1d(128, eps=1e-05, momentum=0.1, affine=True, track_running_stats=True)
            (relu): ReLU(inplace=True)
          )
          (cam_layer): CAMLayer(
            (linear_local): Conv1d(128, 32, kernel_size=(3,), stride=(1,), padding=(1,), bias=False)
            (linear1): Conv1d(128, 64, kernel_size=(1,), stride=(1,))
            (relu): ReLU(inplace=True)
            (linear2): Conv1d(64, 32, kernel_size=(1,), stride=(1,))
            (sigmoid): Sigmoid()
          )
        )
        (4): CAMDenseTDNNLayer(
          (nonlinear1): Sequential(
            (batchnorm): BatchNorm1d(256, eps=1e-05, momentum=0.1, affine=True, track_running_stats=True)
            (relu): ReLU(inplace=True)
          )
          (linear1): Conv1d(256, 128, kernel_size=(1,), stride=(1,), bias=False)
          (nonlinear2): Sequential(
            (batchnorm): BatchNorm1d(128, eps=1e-05, momentum=0.1, affine=True, track_running_stats=True)
            (relu): ReLU(inplace=True)
          )
          (cam_layer): CAMLayer(
            (linear_local): Conv1d(128, 32, kernel_size=(3,), stride=(1,), padding=(1,), bias=False)
            (linear1): Conv1d(128, 64, kernel_size=(1,), stride=(1,))
            (relu): ReLU(inplace=True)
            (linear2): Conv1d(64, 32, kernel_size=(1,), stride=(1,))
            (sigmoid): Sigmoid()
          )
        )
        (5): CAMDenseTDNNLayer(
          (nonlinear1): Sequential(
            (batchnorm): BatchNorm1d(288, eps=1e-05, momentum=0.1, affine=True, track_running_stats=True)
            (relu): ReLU(inplace=True)
          )
          (linear1): Conv1d(288, 128, kernel_size=(1,), stride=(1,), bias=False)
          (nonlinear2): Sequential(
            (batchnorm): BatchNorm1d(128, eps=1e-05, momentum=0.1, affine=True, track_running_stats=True)
            (relu): ReLU(inplace=True)
          )
          (cam_layer): CAMLayer(
            (linear_local): Conv1d(128, 32, kernel_size=(3,), stride=(1,), padding=(1,), bias=False)
            (linear1): Conv1d(128, 64, kernel_size=(1,), stride=(1,))
            (relu): ReLU(inplace=True)
            (linear2): Conv1d(64, 32, kernel_size=(1,), stride=(1,))
            (sigmoid): Sigmoid()
          )
        )
        (6): CAMDenseTDNNLayer(
          (nonlinear1): Sequential(
            (batchnorm): BatchNorm1d(320, eps=1e-05, momentum=0.1, affine=True, track_running_stats=True)
            (relu): ReLU(inplace=True)
          )
          (linear1): Conv1d(320, 128, kernel_size=(1,), stride=(1,), bias=False)
          (nonlinear2): Sequential(
            (batchnorm): BatchNorm1d(128, eps=1e-05, momentum=0.1, affine=True, track_running_stats=True)
            (relu): ReLU(inplace=True)
          )
          (cam_layer): CAMLayer(
            (linear_local): Conv1d(128, 32, kernel_size=(3,), stride=(1,), padding=(1,), bias=False)
            (linear1): Conv1d(128, 64, kernel_size=(1,), stride=(1,))
            (relu): ReLU(inplace=True)
            (linear2): Conv1d(64, 32, kernel_size=(1,), stride=(1,))
            (sigmoid): Sigmoid()
          )
        )
        (7): CAMDenseTDNNLayer(
          (nonlinear1): Sequential(
            (batchnorm): BatchNorm1d(352, eps=1e-05, momentum=0.1, affine=True, track_running_stats=True)
            (relu): ReLU(inplace=True)
          )
          (linear1): Conv1d(352, 128, kernel_size=(1,), stride=(1,), bias=False)
          (nonlinear2): Sequential(
            (batchnorm): BatchNorm1d(128, eps=1e-05, momentum=0.1, affine=True, track_running_stats=True)
            (relu): ReLU(inplace=True)
          )
          (cam_layer): CAMLayer(
            (linear_local): Conv1d(128, 32, kernel_size=(3,), stride=(1,), padding=(1,), bias=False)
            (linear1): Conv1d(128, 64, kernel_size=(1,), stride=(1,))
            (relu): ReLU(inplace=True)
            (linear2): Conv1d(64, 32, kernel_size=(1,), stride=(1,))
            (sigmoid): Sigmoid()
          )
        )
        (8): CAMDenseTDNNLayer(
          (nonlinear1): Sequential(
            (batchnorm): BatchNorm1d(384, eps=1e-05, momentum=0.1, affine=True, track_running_stats=True)
            (relu): ReLU(inplace=True)
          )
          (linear1): Conv1d(384, 128, kernel_size=(1,), stride=(1,), bias=False)
          (nonlinear2): Sequential(
            (batchnorm): BatchNorm1d(128, eps=1e-05, momentum=0.1, affine=True, track_running_stats=True)
            (relu): ReLU(inplace=True)
          )
          (cam_layer): CAMLayer(
            (linear_local): Conv1d(128, 32, kernel_size=(3,), stride=(1,), padding=(1,), bias=False)
            (linear1): Conv1d(128, 64, kernel_size=(1,), stride=(1,))
            (relu): ReLU(inplace=True)
            (linear2): Conv1d(64, 32, kernel_size=(1,), stride=(1,))
            (sigmoid): Sigmoid()
          )
        )
        (9): CAMDenseTDNNLayer(
          (nonlinear1): Sequential(
            (batchnorm): BatchNorm1d(416, eps=1e-05, momentum=0.1, affine=True, track_running_stats=True)
            (relu): ReLU(inplace=True)
          )
          (linear1): Conv1d(416, 128, kernel_size=(1,), stride=(1,), bias=False)
          (nonlinear2): Sequential(
            (batchnorm): BatchNorm1d(128, eps=1e-05, momentum=0.1, affine=True, track_running_stats=True)
            (relu): ReLU(inplace=True)
          )
          (cam_layer): CAMLayer(
            (linear_local): Conv1d(128, 32, kernel_size=(3,), stride=(1,), padding=(1,), bias=False)
            (linear1): Conv1d(128, 64, kernel_size=(1,), stride=(1,))
            (relu): ReLU(inplace=True)
            (linear2): Conv1d(64, 32, kernel_size=(1,), stride=(1,))
            (sigmoid): Sigmoid()
          )
        )
        (10): CAMDenseTDNNLayer(
          (nonlinear1): Sequential(
            (batchnorm): BatchNorm1d(448, eps=1e-05, momentum=0.1, affine=True, track_running_stats=True)
            (relu): ReLU(inplace=True)
          )
          (linear1): Conv1d(448, 128, kernel_size=(1,), stride=(1,), bias=False)
          (nonlinear2): Sequential(
            (batchnorm): BatchNorm1d(128, eps=1e-05, momentum=0.1, affine=True, track_running_stats=True)
            (relu): ReLU(inplace=True)
          )
          (cam_layer): CAMLayer(
            (linear_local): Conv1d(128, 32, kernel_size=(3,), stride=(1,), padding=(1,), bias=False)
            (linear1): Conv1d(128, 64, kernel_size=(1,), stride=(1,))
            (relu): ReLU(inplace=True)
            (linear2): Conv1d(64, 32, kernel_size=(1,), stride=(1,))
            (sigmoid): Sigmoid()
          )
        )
        (11): CAMDenseTDNNLayer(
          (nonlinear1): Sequential(
            (batchnorm): BatchNorm1d(480, eps=1e-05, momentum=0.1, affine=True, track_running_stats=True)
            (relu): ReLU(inplace=True)
          )
          (linear1): Conv1d(480, 128, kernel_size=(1,), stride=(1,), bias=False)
          (nonlinear2): Sequential(
            (batchnorm): BatchNorm1d(128, eps=1e-05, momentum=0.1, affine=True, track_running_stats=True)
            (relu): ReLU(inplace=True)
          )
          (cam_layer): CAMLayer(
            (linear_local): Conv1d(128, 32, kernel_size=(3,), stride=(1,), padding=(1,), bias=False)
            (linear1): Conv1d(128, 64, kernel_size=(1,), stride=(1,))
            (relu): ReLU(inplace=True)
            (linear2): Conv1d(64, 32, kernel_size=(1,), stride=(1,))
            (sigmoid): Sigmoid()
          )
        )
      )
      (transit1): TransitLayer(
        (nonlinear): Sequential(
          (batchnorm): BatchNorm1d(512, eps=1e-05, momentum=0.1, affine=True, track_running_stats=True)
          (relu): ReLU(inplace=True)
        )
        (linear): Conv1d(512, 256, kernel_size=(1,), stride=(1,), bias=False)
      )
      (block2): CAMDenseTDNNBlock(
        (0): CAMDenseTDNNLayer(
          (nonlinear1): Sequential(
            (batchnorm): BatchNorm1d(256, eps=1e-05, momentum=0.1, affine=True, track_running_stats=True)
            (relu): ReLU(inplace=True)
          )
          (linear1): Conv1d(256, 128, kernel_size=(1,), stride=(1,), bias=False)
          (nonlinear2): Sequential(
            (batchnorm): BatchNorm1d(128, eps=1e-05, momentum=0.1, affine=True, track_running_stats=True)
            (relu): ReLU(inplace=True)
          )
          (cam_layer): CAMLayer(
            (linear_local): Conv1d(128, 32, kernel_size=(3,), stride=(1,), padding=(2,), dilation=(2,), bias=False)
            (linear1): Conv1d(128, 64, kernel_size=(1,), stride=(1,))
            (relu): ReLU(inplace=True)
            (linear2): Conv1d(64, 32, kernel_size=(1,), stride=(1,))
            (sigmoid): Sigmoid()
          )
        )
        (1): CAMDenseTDNNLayer(
          (nonlinear1): Sequential(
            (batchnorm): BatchNorm1d(288, eps=1e-05, momentum=0.1, affine=True, track_running_stats=True)
            (relu): ReLU(inplace=True)
          )
          (linear1): Conv1d(288, 128, kernel_size=(1,), stride=(1,), bias=False)
          (nonlinear2): Sequential(
            (batchnorm): BatchNorm1d(128, eps=1e-05, momentum=0.1, affine=True, track_running_stats=True)
            (relu): ReLU(inplace=True)
          )
          (cam_layer): CAMLayer(
            (linear_local): Conv1d(128, 32, kernel_size=(3,), stride=(1,), padding=(2,), dilation=(2,), bias=False)
            (linear1): Conv1d(128, 64, kernel_size=(1,), stride=(1,))
            (relu): ReLU(inplace=True)
            (linear2): Conv1d(64, 32, kernel_size=(1,), stride=(1,))
            (sigmoid): Sigmoid()
          )
        )
        (2): CAMDenseTDNNLayer(
          (nonlinear1): Sequential(
            (batchnorm): BatchNorm1d(320, eps=1e-05, momentum=0.1, affine=True, track_running_stats=True)
            (relu): ReLU(inplace=True)
          )
          (linear1): Conv1d(320, 128, kernel_size=(1,), stride=(1,), bias=False)
          (nonlinear2): Sequential(
            (batchnorm): BatchNorm1d(128, eps=1e-05, momentum=0.1, affine=True, track_running_stats=True)
            (relu): ReLU(inplace=True)
          )
          (cam_layer): CAMLayer(
            (linear_local): Conv1d(128, 32, kernel_size=(3,), stride=(1,), padding=(2,), dilation=(2,), bias=False)
            (linear1): Conv1d(128, 64, kernel_size=(1,), stride=(1,))
            (relu): ReLU(inplace=True)
            (linear2): Conv1d(64, 32, kernel_size=(1,), stride=(1,))
            (sigmoid): Sigmoid()
          )
        )
        (3): CAMDenseTDNNLayer(
          (nonlinear1): Sequential(
            (batchnorm): BatchNorm1d(352, eps=1e-05, momentum=0.1, affine=True, track_running_stats=True)
            (relu): ReLU(inplace=True)
          )
          (linear1): Conv1d(352, 128, kernel_size=(1,), stride=(1,), bias=False)
          (nonlinear2): Sequential(
            (batchnorm): BatchNorm1d(128, eps=1e-05, momentum=0.1, affine=True, track_running_stats=True)
            (relu): ReLU(inplace=True)
          )
          (cam_layer): CAMLayer(
            (linear_local): Conv1d(128, 32, kernel_size=(3,), stride=(1,), padding=(2,), dilation=(2,), bias=False)
            (linear1): Conv1d(128, 64, kernel_size=(1,), stride=(1,))
            (relu): ReLU(inplace=True)
            (linear2): Conv1d(64, 32, kernel_size=(1,), stride=(1,))
            (sigmoid): Sigmoid()
          )
        )
        (4): CAMDenseTDNNLayer(
          (nonlinear1): Sequential(
            (batchnorm): BatchNorm1d(384, eps=1e-05, momentum=0.1, affine=True, track_running_stats=True)
            (relu): ReLU(inplace=True)
          )
          (linear1): Conv1d(384, 128, kernel_size=(1,), stride=(1,), bias=False)
          (nonlinear2): Sequential(
            (batchnorm): BatchNorm1d(128, eps=1e-05, momentum=0.1, affine=True, track_running_stats=True)
            (relu): ReLU(inplace=True)
          )
          (cam_layer): CAMLayer(
            (linear_local): Conv1d(128, 32, kernel_size=(3,), stride=(1,), padding=(2,), dilation=(2,), bias=False)
            (linear1): Conv1d(128, 64, kernel_size=(1,), stride=(1,))
            (relu): ReLU(inplace=True)
            (linear2): Conv1d(64, 32, kernel_size=(1,), stride=(1,))
            (sigmoid): Sigmoid()
          )
        )
        (5): CAMDenseTDNNLayer(
          (nonlinear1): Sequential(
            (batchnorm): BatchNorm1d(416, eps=1e-05, momentum=0.1, affine=True, track_running_stats=True)
            (relu): ReLU(inplace=True)
          )
          (linear1): Conv1d(416, 128, kernel_size=(1,), stride=(1,), bias=False)
          (nonlinear2): Sequential(
            (batchnorm): BatchNorm1d(128, eps=1e-05, momentum=0.1, affine=True, track_running_stats=True)
            (relu): ReLU(inplace=True)
          )
          (cam_layer): CAMLayer(
            (linear_local): Conv1d(128, 32, kernel_size=(3,), stride=(1,), padding=(2,), dilation=(2,), bias=False)
            (linear1): Conv1d(128, 64, kernel_size=(1,), stride=(1,))
            (relu): ReLU(inplace=True)
            (linear2): Conv1d(64, 32, kernel_size=(1,), stride=(1,))
            (sigmoid): Sigmoid()
          )
        )
        (6): CAMDenseTDNNLayer(
          (nonlinear1): Sequential(
            (batchnorm): BatchNorm1d(448, eps=1e-05, momentum=0.1, affine=True, track_running_stats=True)
            (relu): ReLU(inplace=True)
          )
          (linear1): Conv1d(448, 128, kernel_size=(1,), stride=(1,), bias=False)
          (nonlinear2): Sequential(
            (batchnorm): BatchNorm1d(128, eps=1e-05, momentum=0.1, affine=True, track_running_stats=True)
            (relu): ReLU(inplace=True)
          )
          (cam_layer): CAMLayer(
            (linear_local): Conv1d(128, 32, kernel_size=(3,), stride=(1,), padding=(2,), dilation=(2,), bias=False)
            (linear1): Conv1d(128, 64, kernel_size=(1,), stride=(1,))
            (relu): ReLU(inplace=True)
            (linear2): Conv1d(64, 32, kernel_size=(1,), stride=(1,))
            (sigmoid): Sigmoid()
          )
        )
        (7): CAMDenseTDNNLayer(
          (nonlinear1): Sequential(
            (batchnorm): BatchNorm1d(480, eps=1e-05, momentum=0.1, affine=True, track_running_stats=True)
            (relu): ReLU(inplace=True)
          )
          (linear1): Conv1d(480, 128, kernel_size=(1,), stride=(1,), bias=False)
          (nonlinear2): Sequential(
            (batchnorm): BatchNorm1d(128, eps=1e-05, momentum=0.1, affine=True, track_running_stats=True)
            (relu): ReLU(inplace=True)
          )
          (cam_layer): CAMLayer(
            (linear_local): Conv1d(128, 32, kernel_size=(3,), stride=(1,), padding=(2,), dilation=(2,), bias=False)
            (linear1): Conv1d(128, 64, kernel_size=(1,), stride=(1,))
            (relu): ReLU(inplace=True)
            (linear2): Conv1d(64, 32, kernel_size=(1,), stride=(1,))
            (sigmoid): Sigmoid()
          )
        )
        (8): CAMDenseTDNNLayer(
          (nonlinear1): Sequential(
            (batchnorm): BatchNorm1d(512, eps=1e-05, momentum=0.1, affine=True, track_running_stats=True)
            (relu): ReLU(inplace=True)
          )
          (linear1): Conv1d(512, 128, kernel_size=(1,), stride=(1,), bias=False)
          (nonlinear2): Sequential(
            (batchnorm): BatchNorm1d(128, eps=1e-05, momentum=0.1, affine=True, track_running_stats=True)
            (relu): ReLU(inplace=True)
          )
          (cam_layer): CAMLayer(
            (linear_local): Conv1d(128, 32, kernel_size=(3,), stride=(1,), padding=(2,), dilation=(2,), bias=False)
            (linear1): Conv1d(128, 64, kernel_size=(1,), stride=(1,))
            (relu): ReLU(inplace=True)
            (linear2): Conv1d(64, 32, kernel_size=(1,), stride=(1,))
            (sigmoid): Sigmoid()
          )
        )
        (9): CAMDenseTDNNLayer(
          (nonlinear1): Sequential(
            (batchnorm): BatchNorm1d(544, eps=1e-05, momentum=0.1, affine=True, track_running_stats=True)
            (relu): ReLU(inplace=True)
          )
          (linear1): Conv1d(544, 128, kernel_size=(1,), stride=(1,), bias=False)
          (nonlinear2): Sequential(
            (batchnorm): BatchNorm1d(128, eps=1e-05, momentum=0.1, affine=True, track_running_stats=True)
            (relu): ReLU(inplace=True)
          )
          (cam_layer): CAMLayer(
            (linear_local): Conv1d(128, 32, kernel_size=(3,), stride=(1,), padding=(2,), dilation=(2,), bias=False)
            (linear1): Conv1d(128, 64, kernel_size=(1,), stride=(1,))
            (relu): ReLU(inplace=True)
            (linear2): Conv1d(64, 32, kernel_size=(1,), stride=(1,))
            (sigmoid): Sigmoid()
          )
        )
        (10): CAMDenseTDNNLayer(
          (nonlinear1): Sequential(
            (batchnorm): BatchNorm1d(576, eps=1e-05, momentum=0.1, affine=True, track_running_stats=True)
            (relu): ReLU(inplace=True)
          )
          (linear1): Conv1d(576, 128, kernel_size=(1,), stride=(1,), bias=False)
          (nonlinear2): Sequential(
            (batchnorm): BatchNorm1d(128, eps=1e-05, momentum=0.1, affine=True, track_running_stats=True)
            (relu): ReLU(inplace=True)
          )
          (cam_layer): CAMLayer(
            (linear_local): Conv1d(128, 32, kernel_size=(3,), stride=(1,), padding=(2,), dilation=(2,), bias=False)
            (linear1): Conv1d(128, 64, kernel_size=(1,), stride=(1,))
            (relu): ReLU(inplace=True)
            (linear2): Conv1d(64, 32, kernel_size=(1,), stride=(1,))
            (sigmoid): Sigmoid()
          )
        )
        (11): CAMDenseTDNNLayer(
          (nonlinear1): Sequential(
            (batchnorm): BatchNorm1d(608, eps=1e-05, momentum=0.1, affine=True, track_running_stats=True)
            (relu): ReLU(inplace=True)
          )
          (linear1): Conv1d(608, 128, kernel_size=(1,), stride=(1,), bias=False)
          (nonlinear2): Sequential(
            (batchnorm): BatchNorm1d(128, eps=1e-05, momentum=0.1, affine=True, track_running_stats=True)
            (relu): ReLU(inplace=True)
          )
          (cam_layer): CAMLayer(
            (linear_local): Conv1d(128, 32, kernel_size=(3,), stride=(1,), padding=(2,), dilation=(2,), bias=False)
            (linear1): Conv1d(128, 64, kernel_size=(1,), stride=(1,))
            (relu): ReLU(inplace=True)
            (linear2): Conv1d(64, 32, kernel_size=(1,), stride=(1,))
            (sigmoid): Sigmoid()
          )
        )
        (12): CAMDenseTDNNLayer(
          (nonlinear1): Sequential(
            (batchnorm): BatchNorm1d(640, eps=1e-05, momentum=0.1, affine=True, track_running_stats=True)
            (relu): ReLU(inplace=True)
          )
          (linear1): Conv1d(640, 128, kernel_size=(1,), stride=(1,), bias=False)
          (nonlinear2): Sequential(
            (batchnorm): BatchNorm1d(128, eps=1e-05, momentum=0.1, affine=True, track_running_stats=True)
            (relu): ReLU(inplace=True)
          )
          (cam_layer): CAMLayer(
            (linear_local): Conv1d(128, 32, kernel_size=(3,), stride=(1,), padding=(2,), dilation=(2,), bias=False)
            (linear1): Conv1d(128, 64, kernel_size=(1,), stride=(1,))
            (relu): ReLU(inplace=True)
            (linear2): Conv1d(64, 32, kernel_size=(1,), stride=(1,))
            (sigmoid): Sigmoid()
          )
        )
        (13): CAMDenseTDNNLayer(
          (nonlinear1): Sequential(
            (batchnorm): BatchNorm1d(672, eps=1e-05, momentum=0.1, affine=True, track_running_stats=True)
            (relu): ReLU(inplace=True)
          )
          (linear1): Conv1d(672, 128, kernel_size=(1,), stride=(1,), bias=False)
          (nonlinear2): Sequential(
            (batchnorm): BatchNorm1d(128, eps=1e-05, momentum=0.1, affine=True, track_running_stats=True)
            (relu): ReLU(inplace=True)
          )
          (cam_layer): CAMLayer(
            (linear_local): Conv1d(128, 32, kernel_size=(3,), stride=(1,), padding=(2,), dilation=(2,), bias=False)
            (linear1): Conv1d(128, 64, kernel_size=(1,), stride=(1,))
            (relu): ReLU(inplace=True)
            (linear2): Conv1d(64, 32, kernel_size=(1,), stride=(1,))
            (sigmoid): Sigmoid()
          )
        )
        (14): CAMDenseTDNNLayer(
          (nonlinear1): Sequential(
            (batchnorm): BatchNorm1d(704, eps=1e-05, momentum=0.1, affine=True, track_running_stats=True)
            (relu): ReLU(inplace=True)
          )
          (linear1): Conv1d(704, 128, kernel_size=(1,), stride=(1,), bias=False)
          (nonlinear2): Sequential(
            (batchnorm): BatchNorm1d(128, eps=1e-05, momentum=0.1, affine=True, track_running_stats=True)
            (relu): ReLU(inplace=True)
          )
          (cam_layer): CAMLayer(
            (linear_local): Conv1d(128, 32, kernel_size=(3,), stride=(1,), padding=(2,), dilation=(2,), bias=False)
            (linear1): Conv1d(128, 64, kernel_size=(1,), stride=(1,))
            (relu): ReLU(inplace=True)
            (linear2): Conv1d(64, 32, kernel_size=(1,), stride=(1,))
            (sigmoid): Sigmoid()
          )
        )
        (15): CAMDenseTDNNLayer(
          (nonlinear1): Sequential(
            (batchnorm): BatchNorm1d(736, eps=1e-05, momentum=0.1, affine=True, track_running_stats=True)
            (relu): ReLU(inplace=True)
          )
          (linear1): Conv1d(736, 128, kernel_size=(1,), stride=(1,), bias=False)
          (nonlinear2): Sequential(
            (batchnorm): BatchNorm1d(128, eps=1e-05, momentum=0.1, affine=True, track_running_stats=True)
            (relu): ReLU(inplace=True)
          )
          (cam_layer): CAMLayer(
            (linear_local): Conv1d(128, 32, kernel_size=(3,), stride=(1,), padding=(2,), dilation=(2,), bias=False)
            (linear1): Conv1d(128, 64, kernel_size=(1,), stride=(1,))
            (relu): ReLU(inplace=True)
            (linear2): Conv1d(64, 32, kernel_size=(1,), stride=(1,))
            (sigmoid): Sigmoid()
          )
        )
        (16): CAMDenseTDNNLayer(
          (nonlinear1): Sequential(
            (batchnorm): BatchNorm1d(768, eps=1e-05, momentum=0.1, affine=True, track_running_stats=True)
            (relu): ReLU(inplace=True)
          )
          (linear1): Conv1d(768, 128, kernel_size=(1,), stride=(1,), bias=False)
          (nonlinear2): Sequential(
            (batchnorm): BatchNorm1d(128, eps=1e-05, momentum=0.1, affine=True, track_running_stats=True)
            (relu): ReLU(inplace=True)
          )
          (cam_layer): CAMLayer(
            (linear_local): Conv1d(128, 32, kernel_size=(3,), stride=(1,), padding=(2,), dilation=(2,), bias=False)
            (linear1): Conv1d(128, 64, kernel_size=(1,), stride=(1,))
            (relu): ReLU(inplace=True)
            (linear2): Conv1d(64, 32, kernel_size=(1,), stride=(1,))
            (sigmoid): Sigmoid()
          )
        )
        (17): CAMDenseTDNNLayer(
          (nonlinear1): Sequential(
            (batchnorm): BatchNorm1d(800, eps=1e-05, momentum=0.1, affine=True, track_running_stats=True)
            (relu): ReLU(inplace=True)
          )
          (linear1): Conv1d(800, 128, kernel_size=(1,), stride=(1,), bias=False)
          (nonlinear2): Sequential(
            (batchnorm): BatchNorm1d(128, eps=1e-05, momentum=0.1, affine=True, track_running_stats=True)
            (relu): ReLU(inplace=True)
          )
          (cam_layer): CAMLayer(
            (linear_local): Conv1d(128, 32, kernel_size=(3,), stride=(1,), padding=(2,), dilation=(2,), bias=False)
            (linear1): Conv1d(128, 64, kernel_size=(1,), stride=(1,))
            (relu): ReLU(inplace=True)
            (linear2): Conv1d(64, 32, kernel_size=(1,), stride=(1,))
            (sigmoid): Sigmoid()
          )
        )
        (18): CAMDenseTDNNLayer(
          (nonlinear1): Sequential(
            (batchnorm): BatchNorm1d(832, eps=1e-05, momentum=0.1, affine=True, track_running_stats=True)
            (relu): ReLU(inplace=True)
          )
          (linear1): Conv1d(832, 128, kernel_size=(1,), stride=(1,), bias=False)
          (nonlinear2): Sequential(
            (batchnorm): BatchNorm1d(128, eps=1e-05, momentum=0.1, affine=True, track_running_stats=True)
            (relu): ReLU(inplace=True)
          )
          (cam_layer): CAMLayer(
            (linear_local): Conv1d(128, 32, kernel_size=(3,), stride=(1,), padding=(2,), dilation=(2,), bias=False)
            (linear1): Conv1d(128, 64, kernel_size=(1,), stride=(1,))
            (relu): ReLU(inplace=True)
            (linear2): Conv1d(64, 32, kernel_size=(1,), stride=(1,))
            (sigmoid): Sigmoid()
          )
        )
        (19): CAMDenseTDNNLayer(
          (nonlinear1): Sequential(
            (batchnorm): BatchNorm1d(864, eps=1e-05, momentum=0.1, affine=True, track_running_stats=True)
            (relu): ReLU(inplace=True)
          )
          (linear1): Conv1d(864, 128, kernel_size=(1,), stride=(1,), bias=False)
          (nonlinear2): Sequential(
            (batchnorm): BatchNorm1d(128, eps=1e-05, momentum=0.1, affine=True, track_running_stats=True)
            (relu): ReLU(inplace=True)
          )
          (cam_layer): CAMLayer(
            (linear_local): Conv1d(128, 32, kernel_size=(3,), stride=(1,), padding=(2,), dilation=(2,), bias=False)
            (linear1): Conv1d(128, 64, kernel_size=(1,), stride=(1,))
            (relu): ReLU(inplace=True)
            (linear2): Conv1d(64, 32, kernel_size=(1,), stride=(1,))
            (sigmoid): Sigmoid()
          )
        )
        (20): CAMDenseTDNNLayer(
          (nonlinear1): Sequential(
            (batchnorm): BatchNorm1d(896, eps=1e-05, momentum=0.1, affine=True, track_running_stats=True)
            (relu): ReLU(inplace=True)
          )
          (linear1): Conv1d(896, 128, kernel_size=(1,), stride=(1,), bias=False)
          (nonlinear2): Sequential(
            (batchnorm): BatchNorm1d(128, eps=1e-05, momentum=0.1, affine=True, track_running_stats=True)
            (relu): ReLU(inplace=True)
          )
          (cam_layer): CAMLayer(
            (linear_local): Conv1d(128, 32, kernel_size=(3,), stride=(1,), padding=(2,), dilation=(2,), bias=False)
            (linear1): Conv1d(128, 64, kernel_size=(1,), stride=(1,))
            (relu): ReLU(inplace=True)
            (linear2): Conv1d(64, 32, kernel_size=(1,), stride=(1,))
            (sigmoid): Sigmoid()
          )
        )
        (21): CAMDenseTDNNLayer(
          (nonlinear1): Sequential(
            (batchnorm): BatchNorm1d(928, eps=1e-05, momentum=0.1, affine=True, track_running_stats=True)
            (relu): ReLU(inplace=True)
          )
          (linear1): Conv1d(928, 128, kernel_size=(1,), stride=(1,), bias=False)
          (nonlinear2): Sequential(
            (batchnorm): BatchNorm1d(128, eps=1e-05, momentum=0.1, affine=True, track_running_stats=True)
            (relu): ReLU(inplace=True)
          )
          (cam_layer): CAMLayer(
            (linear_local): Conv1d(128, 32, kernel_size=(3,), stride=(1,), padding=(2,), dilation=(2,), bias=False)
            (linear1): Conv1d(128, 64, kernel_size=(1,), stride=(1,))
            (relu): ReLU(inplace=True)
            (linear2): Conv1d(64, 32, kernel_size=(1,), stride=(1,))
            (sigmoid): Sigmoid()
          )
        )
        (22): CAMDenseTDNNLayer(
          (nonlinear1): Sequential(
            (batchnorm): BatchNorm1d(960, eps=1e-05, momentum=0.1, affine=True, track_running_stats=True)
            (relu): ReLU(inplace=True)
          )
          (linear1): Conv1d(960, 128, kernel_size=(1,), stride=(1,), bias=False)
          (nonlinear2): Sequential(
            (batchnorm): BatchNorm1d(128, eps=1e-05, momentum=0.1, affine=True, track_running_stats=True)
            (relu): ReLU(inplace=True)
          )
          (cam_layer): CAMLayer(
            (linear_local): Conv1d(128, 32, kernel_size=(3,), stride=(1,), padding=(2,), dilation=(2,), bias=False)
            (linear1): Conv1d(128, 64, kernel_size=(1,), stride=(1,))
            (relu): ReLU(inplace=True)
            (linear2): Conv1d(64, 32, kernel_size=(1,), stride=(1,))
            (sigmoid): Sigmoid()
          )
        )
        (23): CAMDenseTDNNLayer(
          (nonlinear1): Sequential(
            (batchnorm): BatchNorm1d(992, eps=1e-05, momentum=0.1, affine=True, track_running_stats=True)
            (relu): ReLU(inplace=True)
          )
          (linear1): Conv1d(992, 128, kernel_size=(1,), stride=(1,), bias=False)
          (nonlinear2): Sequential(
            (batchnorm): BatchNorm1d(128, eps=1e-05, momentum=0.1, affine=True, track_running_stats=True)
            (relu): ReLU(inplace=True)
          )
          (cam_layer): CAMLayer(
            (linear_local): Conv1d(128, 32, kernel_size=(3,), stride=(1,), padding=(2,), dilation=(2,), bias=False)
            (linear1): Conv1d(128, 64, kernel_size=(1,), stride=(1,))
            (relu): ReLU(inplace=True)
            (linear2): Conv1d(64, 32, kernel_size=(1,), stride=(1,))
            (sigmoid): Sigmoid()
          )
        )
      )
      (transit2): TransitLayer(
        (nonlinear): Sequential(
          (batchnorm): BatchNorm1d(1024, eps=1e-05, momentum=0.1, affine=True, track_running_stats=True)
          (relu): ReLU(inplace=True)
        )
        (linear): Conv1d(1024, 512, kernel_size=(1,), stride=(1,), bias=False)
      )
      (block3): CAMDenseTDNNBlock(
        (0): CAMDenseTDNNLayer(
          (nonlinear1): Sequential(
            (batchnorm): BatchNorm1d(512, eps=1e-05, momentum=0.1, affine=True, track_running_stats=True)
            (relu): ReLU(inplace=True)
          )
          (linear1): Conv1d(512, 128, kernel_size=(1,), stride=(1,), bias=False)
          (nonlinear2): Sequential(
            (batchnorm): BatchNorm1d(128, eps=1e-05, momentum=0.1, affine=True, track_running_stats=True)
            (relu): ReLU(inplace=True)
          )
          (cam_layer): CAMLayer(
            (linear_local): Conv1d(128, 32, kernel_size=(3,), stride=(1,), padding=(2,), dilation=(2,), bias=False)
            (linear1): Conv1d(128, 64, kernel_size=(1,), stride=(1,))
            (relu): ReLU(inplace=True)
            (linear2): Conv1d(64, 32, kernel_size=(1,), stride=(1,))
            (sigmoid): Sigmoid()
          )
        )
        (1): CAMDenseTDNNLayer(
          (nonlinear1): Sequential(
            (batchnorm): BatchNorm1d(544, eps=1e-05, momentum=0.1, affine=True, track_running_stats=True)
            (relu): ReLU(inplace=True)
          )
          (linear1): Conv1d(544, 128, kernel_size=(1,), stride=(1,), bias=False)
          (nonlinear2): Sequential(
            (batchnorm): BatchNorm1d(128, eps=1e-05, momentum=0.1, affine=True, track_running_stats=True)
            (relu): ReLU(inplace=True)
          )
          (cam_layer): CAMLayer(
            (linear_local): Conv1d(128, 32, kernel_size=(3,), stride=(1,), padding=(2,), dilation=(2,), bias=False)
            (linear1): Conv1d(128, 64, kernel_size=(1,), stride=(1,))
            (relu): ReLU(inplace=True)
            (linear2): Conv1d(64, 32, kernel_size=(1,), stride=(1,))
            (sigmoid): Sigmoid()
          )
        )
        (2): CAMDenseTDNNLayer(
          (nonlinear1): Sequential(
            (batchnorm): BatchNorm1d(576, eps=1e-05, momentum=0.1, affine=True, track_running_stats=True)
            (relu): ReLU(inplace=True)
          )
          (linear1): Conv1d(576, 128, kernel_size=(1,), stride=(1,), bias=False)
          (nonlinear2): Sequential(
            (batchnorm): BatchNorm1d(128, eps=1e-05, momentum=0.1, affine=True, track_running_stats=True)
            (relu): ReLU(inplace=True)
          )
          (cam_layer): CAMLayer(
            (linear_local): Conv1d(128, 32, kernel_size=(3,), stride=(1,), padding=(2,), dilation=(2,), bias=False)
            (linear1): Conv1d(128, 64, kernel_size=(1,), stride=(1,))
            (relu): ReLU(inplace=True)
            (linear2): Conv1d(64, 32, kernel_size=(1,), stride=(1,))
            (sigmoid): Sigmoid()
          )
        )
        (3): CAMDenseTDNNLayer(
          (nonlinear1): Sequential(
            (batchnorm): BatchNorm1d(608, eps=1e-05, momentum=0.1, affine=True, track_running_stats=True)
            (relu): ReLU(inplace=True)
          )
          (linear1): Conv1d(608, 128, kernel_size=(1,), stride=(1,), bias=False)
          (nonlinear2): Sequential(
            (batchnorm): BatchNorm1d(128, eps=1e-05, momentum=0.1, affine=True, track_running_stats=True)
            (relu): ReLU(inplace=True)
          )
          (cam_layer): CAMLayer(
            (linear_local): Conv1d(128, 32, kernel_size=(3,), stride=(1,), padding=(2,), dilation=(2,), bias=False)
            (linear1): Conv1d(128, 64, kernel_size=(1,), stride=(1,))
            (relu): ReLU(inplace=True)
            (linear2): Conv1d(64, 32, kernel_size=(1,), stride=(1,))
            (sigmoid): Sigmoid()
          )
        )
        (4): CAMDenseTDNNLayer(
          (nonlinear1): Sequential(
            (batchnorm): BatchNorm1d(640, eps=1e-05, momentum=0.1, affine=True, track_running_stats=True)
            (relu): ReLU(inplace=True)
          )
          (linear1): Conv1d(640, 128, kernel_size=(1,), stride=(1,), bias=False)
          (nonlinear2): Sequential(
            (batchnorm): BatchNorm1d(128, eps=1e-05, momentum=0.1, affine=True, track_running_stats=True)
            (relu): ReLU(inplace=True)
          )
          (cam_layer): CAMLayer(
            (linear_local): Conv1d(128, 32, kernel_size=(3,), stride=(1,), padding=(2,), dilation=(2,), bias=False)
            (linear1): Conv1d(128, 64, kernel_size=(1,), stride=(1,))
            (relu): ReLU(inplace=True)
            (linear2): Conv1d(64, 32, kernel_size=(1,), stride=(1,))
            (sigmoid): Sigmoid()
          )
        )
        (5): CAMDenseTDNNLayer(
          (nonlinear1): Sequential(
            (batchnorm): BatchNorm1d(672, eps=1e-05, momentum=0.1, affine=True, track_running_stats=True)
            (relu): ReLU(inplace=True)
          )
          (linear1): Conv1d(672, 128, kernel_size=(1,), stride=(1,), bias=False)
          (nonlinear2): Sequential(
            (batchnorm): BatchNorm1d(128, eps=1e-05, momentum=0.1, affine=True, track_running_stats=True)
            (relu): ReLU(inplace=True)
          )
          (cam_layer): CAMLayer(
            (linear_local): Conv1d(128, 32, kernel_size=(3,), stride=(1,), padding=(2,), dilation=(2,), bias=False)
            (linear1): Conv1d(128, 64, kernel_size=(1,), stride=(1,))
            (relu): ReLU(inplace=True)
            (linear2): Conv1d(64, 32, kernel_size=(1,), stride=(1,))
            (sigmoid): Sigmoid()
          )
        )
        (6): CAMDenseTDNNLayer(
          (nonlinear1): Sequential(
            (batchnorm): BatchNorm1d(704, eps=1e-05, momentum=0.1, affine=True, track_running_stats=True)
            (relu): ReLU(inplace=True)
          )
          (linear1): Conv1d(704, 128, kernel_size=(1,), stride=(1,), bias=False)
          (nonlinear2): Sequential(
            (batchnorm): BatchNorm1d(128, eps=1e-05, momentum=0.1, affine=True, track_running_stats=True)
            (relu): ReLU(inplace=True)
          )
          (cam_layer): CAMLayer(
            (linear_local): Conv1d(128, 32, kernel_size=(3,), stride=(1,), padding=(2,), dilation=(2,), bias=False)
            (linear1): Conv1d(128, 64, kernel_size=(1,), stride=(1,))
            (relu): ReLU(inplace=True)
            (linear2): Conv1d(64, 32, kernel_size=(1,), stride=(1,))
            (sigmoid): Sigmoid()
          )
        )
        (7): CAMDenseTDNNLayer(
          (nonlinear1): Sequential(
            (batchnorm): BatchNorm1d(736, eps=1e-05, momentum=0.1, affine=True, track_running_stats=True)
            (relu): ReLU(inplace=True)
          )
          (linear1): Conv1d(736, 128, kernel_size=(1,), stride=(1,), bias=False)
          (nonlinear2): Sequential(
            (batchnorm): BatchNorm1d(128, eps=1e-05, momentum=0.1, affine=True, track_running_stats=True)
            (relu): ReLU(inplace=True)
          )
          (cam_layer): CAMLayer(
            (linear_local): Conv1d(128, 32, kernel_size=(3,), stride=(1,), padding=(2,), dilation=(2,), bias=False)
            (linear1): Conv1d(128, 64, kernel_size=(1,), stride=(1,))
            (relu): ReLU(inplace=True)
            (linear2): Conv1d(64, 32, kernel_size=(1,), stride=(1,))
            (sigmoid): Sigmoid()
          )
        )
        (8): CAMDenseTDNNLayer(
          (nonlinear1): Sequential(
            (batchnorm): BatchNorm1d(768, eps=1e-05, momentum=0.1, affine=True, track_running_stats=True)
            (relu): ReLU(inplace=True)
          )
          (linear1): Conv1d(768, 128, kernel_size=(1,), stride=(1,), bias=False)
          (nonlinear2): Sequential(
            (batchnorm): BatchNorm1d(128, eps=1e-05, momentum=0.1, affine=True, track_running_stats=True)
            (relu): ReLU(inplace=True)
          )
          (cam_layer): CAMLayer(
            (linear_local): Conv1d(128, 32, kernel_size=(3,), stride=(1,), padding=(2,), dilation=(2,), bias=False)
            (linear1): Conv1d(128, 64, kernel_size=(1,), stride=(1,))
            (relu): ReLU(inplace=True)
            (linear2): Conv1d(64, 32, kernel_size=(1,), stride=(1,))
            (sigmoid): Sigmoid()
          )
        )
        (9): CAMDenseTDNNLayer(
          (nonlinear1): Sequential(
            (batchnorm): BatchNorm1d(800, eps=1e-05, momentum=0.1, affine=True, track_running_stats=True)
            (relu): ReLU(inplace=True)
          )
          (linear1): Conv1d(800, 128, kernel_size=(1,), stride=(1,), bias=False)
          (nonlinear2): Sequential(
            (batchnorm): BatchNorm1d(128, eps=1e-05, momentum=0.1, affine=True, track_running_stats=True)
            (relu): ReLU(inplace=True)
          )
          (cam_layer): CAMLayer(
            (linear_local): Conv1d(128, 32, kernel_size=(3,), stride=(1,), padding=(2,), dilation=(2,), bias=False)
            (linear1): Conv1d(128, 64, kernel_size=(1,), stride=(1,))
            (relu): ReLU(inplace=True)
            (linear2): Conv1d(64, 32, kernel_size=(1,), stride=(1,))
            (sigmoid): Sigmoid()
          )
        )
        (10): CAMDenseTDNNLayer(
          (nonlinear1): Sequential(
            (batchnorm): BatchNorm1d(832, eps=1e-05, momentum=0.1, affine=True, track_running_stats=True)
            (relu): ReLU(inplace=True)
          )
          (linear1): Conv1d(832, 128, kernel_size=(1,), stride=(1,), bias=False)
          (nonlinear2): Sequential(
            (batchnorm): BatchNorm1d(128, eps=1e-05, momentum=0.1, affine=True, track_running_stats=True)
            (relu): ReLU(inplace=True)
          )
          (cam_layer): CAMLayer(
            (linear_local): Conv1d(128, 32, kernel_size=(3,), stride=(1,), padding=(2,), dilation=(2,), bias=False)
            (linear1): Conv1d(128, 64, kernel_size=(1,), stride=(1,))
            (relu): ReLU(inplace=True)
            (linear2): Conv1d(64, 32, kernel_size=(1,), stride=(1,))
            (sigmoid): Sigmoid()
          )
        )
        (11): CAMDenseTDNNLayer(
          (nonlinear1): Sequential(
            (batchnorm): BatchNorm1d(864, eps=1e-05, momentum=0.1, affine=True, track_running_stats=True)
            (relu): ReLU(inplace=True)
          )
          (linear1): Conv1d(864, 128, kernel_size=(1,), stride=(1,), bias=False)
          (nonlinear2): Sequential(
            (batchnorm): BatchNorm1d(128, eps=1e-05, momentum=0.1, affine=True, track_running_stats=True)
            (relu): ReLU(inplace=True)
          )
          (cam_layer): CAMLayer(
            (linear_local): Conv1d(128, 32, kernel_size=(3,), stride=(1,), padding=(2,), dilation=(2,), bias=False)
            (linear1): Conv1d(128, 64, kernel_size=(1,), stride=(1,))
            (relu): ReLU(inplace=True)
            (linear2): Conv1d(64, 32, kernel_size=(1,), stride=(1,))
            (sigmoid): Sigmoid()
          )
        )
        (12): CAMDenseTDNNLayer(
          (nonlinear1): Sequential(
            (batchnorm): BatchNorm1d(896, eps=1e-05, momentum=0.1, affine=True, track_running_stats=True)
            (relu): ReLU(inplace=True)
          )
          (linear1): Conv1d(896, 128, kernel_size=(1,), stride=(1,), bias=False)
          (nonlinear2): Sequential(
            (batchnorm): BatchNorm1d(128, eps=1e-05, momentum=0.1, affine=True, track_running_stats=True)
            (relu): ReLU(inplace=True)
          )
          (cam_layer): CAMLayer(
            (linear_local): Conv1d(128, 32, kernel_size=(3,), stride=(1,), padding=(2,), dilation=(2,), bias=False)
            (linear1): Conv1d(128, 64, kernel_size=(1,), stride=(1,))
            (relu): ReLU(inplace=True)
            (linear2): Conv1d(64, 32, kernel_size=(1,), stride=(1,))
            (sigmoid): Sigmoid()
          )
        )
        (13): CAMDenseTDNNLayer(
          (nonlinear1): Sequential(
            (batchnorm): BatchNorm1d(928, eps=1e-05, momentum=0.1, affine=True, track_running_stats=True)
            (relu): ReLU(inplace=True)
          )
          (linear1): Conv1d(928, 128, kernel_size=(1,), stride=(1,), bias=False)
          (nonlinear2): Sequential(
            (batchnorm): BatchNorm1d(128, eps=1e-05, momentum=0.1, affine=True, track_running_stats=True)
            (relu): ReLU(inplace=True)
          )
          (cam_layer): CAMLayer(
            (linear_local): Conv1d(128, 32, kernel_size=(3,), stride=(1,), padding=(2,), dilation=(2,), bias=False)
            (linear1): Conv1d(128, 64, kernel_size=(1,), stride=(1,))
            (relu): ReLU(inplace=True)
            (linear2): Conv1d(64, 32, kernel_size=(1,), stride=(1,))
            (sigmoid): Sigmoid()
          )
        )
        (14): CAMDenseTDNNLayer(
          (nonlinear1): Sequential(
            (batchnorm): BatchNorm1d(960, eps=1e-05, momentum=0.1, affine=True, track_running_stats=True)
            (relu): ReLU(inplace=True)
          )
          (linear1): Conv1d(960, 128, kernel_size=(1,), stride=(1,), bias=False)
          (nonlinear2): Sequential(
            (batchnorm): BatchNorm1d(128, eps=1e-05, momentum=0.1, affine=True, track_running_stats=True)
            (relu): ReLU(inplace=True)
          )
          (cam_layer): CAMLayer(
            (linear_local): Conv1d(128, 32, kernel_size=(3,), stride=(1,), padding=(2,), dilation=(2,), bias=False)
            (linear1): Conv1d(128, 64, kernel_size=(1,), stride=(1,))
            (relu): ReLU(inplace=True)
            (linear2): Conv1d(64, 32, kernel_size=(1,), stride=(1,))
            (sigmoid): Sigmoid()
          )
        )
        (15): CAMDenseTDNNLayer(
          (nonlinear1): Sequential(
            (batchnorm): BatchNorm1d(992, eps=1e-05, momentum=0.1, affine=True, track_running_stats=True)
            (relu): ReLU(inplace=True)
          )
          (linear1): Conv1d(992, 128, kernel_size=(1,), stride=(1,), bias=False)
          (nonlinear2): Sequential(
            (batchnorm): BatchNorm1d(128, eps=1e-05, momentum=0.1, affine=True, track_running_stats=True)
            (relu): ReLU(inplace=True)
          )
          (cam_layer): CAMLayer(
            (linear_local): Conv1d(128, 32, kernel_size=(3,), stride=(1,), padding=(2,), dilation=(2,), bias=False)
            (linear1): Conv1d(128, 64, kernel_size=(1,), stride=(1,))
            (relu): ReLU(inplace=True)
            (linear2): Conv1d(64, 32, kernel_size=(1,), stride=(1,))
            (sigmoid): Sigmoid()
          )
        )
      )
      (transit3): TransitLayer(
        (nonlinear): Sequential(
          (batchnorm): BatchNorm1d(1024, eps=1e-05, momentum=0.1, affine=True, track_running_stats=True)
          (relu): ReLU(inplace=True)
        )
        (linear): Conv1d(1024, 512, kernel_size=(1,), stride=(1,), bias=False)
      )
      (out_nonlinear): Sequential(
        (batchnorm): BatchNorm1d(512, eps=1e-05, momentum=0.1, affine=True, track_running_stats=True)
        (relu): ReLU(inplace=True)
      )
      (stats): StatsPool()
      (dense): DenseLayer(
        (linear): Conv1d(1024, 192, kernel_size=(1,), stride=(1,), bias=False)
        (nonlinear): Sequential(
          (batchnorm): BatchNorm1d(192, eps=1e-05, momentum=0.1, affine=False, track_running_stats=True)
        )
      )
    )
  )
  (speech_down_or_up): Sequential(
    (0): Conv1d(512, 192, kernel_size=(5,), stride=(2,), padding=(2,))
    (1): BatchNorm1D(
      (bn): BatchNorm1d(192, eps=1e-05, momentum=0.1, affine=True, track_running_stats=True)
    )
    (2): ReLU()
  )
  (pos_encoder): PositionalEncoding(
    (dropout): Dropout(p=0.1, inplace=False)
  )
  (single_backend): Conformer(
    (conformer_layers): ModuleList(
      (0-1): 2 x ConformerLayer(
        (ffn1): _FeedForwardModule(
          (sequential): Sequential(
            (0): LayerNorm((384,), eps=1e-05, elementwise_affine=True)
            (1): Linear(in_features=384, out_features=1536, bias=True)
            (2): SiLU()
            (3): Dropout(p=0.0, inplace=False)
            (4): Linear(in_features=1536, out_features=384, bias=True)
            (5): Dropout(p=0.0, inplace=False)
          )
        )
        (self_attn_layer_norm): LayerNorm((384,), eps=1e-05, elementwise_affine=True)
        (self_attn): MultiheadAttention(
          (out_proj): NonDynamicallyQuantizableLinear(in_features=384, out_features=384, bias=True)
        )
        (self_attn_dropout): Dropout(p=0.0, inplace=False)
        (conv_module): _ConvolutionModule(
          (layer_norm): LayerNorm((384,), eps=1e-05, elementwise_affine=True)
          (sequential): Sequential(
            (0): Conv1d(384, 768, kernel_size=(1,), stride=(1,))
            (1): GLU(dim=1)
            (2): Conv1d(384, 384, kernel_size=(31,), stride=(1,), padding=(15,), groups=384)
            (3): BatchNorm1d(384, eps=1e-05, momentum=0.1, affine=True, track_running_stats=True)
            (4): SiLU()
            (5): Conv1d(384, 384, kernel_size=(1,), stride=(1,))
            (6): Dropout(p=0.0, inplace=False)
          )
        )
        (ffn2): _FeedForwardModule(
          (sequential): Sequential(
            (0): LayerNorm((384,), eps=1e-05, elementwise_affine=True)
            (1): Linear(in_features=384, out_features=1536, bias=True)
            (2): SiLU()
            (3): Dropout(p=0.0, inplace=False)
            (4): Linear(in_features=1536, out_features=384, bias=True)
            (5): Dropout(p=0.0, inplace=False)
          )
        )
        (final_layer_norm): LayerNorm((384,), eps=1e-05, elementwise_affine=True)
      )
    )
  )
  (backend_down): Sequential(
    (0): Conv1d(2688, 384, kernel_size=(5,), stride=(1,), padding=(2,))
    (1): BatchNorm1D(
      (bn): BatchNorm1d(384, eps=1e-05, momentum=0.1, affine=True, track_running_stats=True)
    )
    (2): ReLU()
  )
  (multi_backend): Conformer(
    (conformer_layers): ModuleList(
      (0-1): 2 x ConformerLayer(
        (ffn1): _FeedForwardModule(
          (sequential): Sequential(
            (0): LayerNorm((384,), eps=1e-05, elementwise_affine=True)
            (1): Linear(in_features=384, out_features=1536, bias=True)
            (2): SiLU()
            (3): Dropout(p=0.0, inplace=False)
            (4): Linear(in_features=1536, out_features=384, bias=True)
            (5): Dropout(p=0.0, inplace=False)
          )
        )
        (self_attn_layer_norm): LayerNorm((384,), eps=1e-05, elementwise_affine=True)
        (self_attn): MultiheadAttention(
          (out_proj): NonDynamicallyQuantizableLinear(in_features=384, out_features=384, bias=True)
        )
        (self_attn_dropout): Dropout(p=0.0, inplace=False)
        (conv_module): _ConvolutionModule(
          (layer_norm): LayerNorm((384,), eps=1e-05, elementwise_affine=True)
          (sequential): Sequential(
            (0): Conv1d(384, 768, kernel_size=(1,), stride=(1,))
            (1): GLU(dim=1)
            (2): Conv1d(384, 384, kernel_size=(31,), stride=(1,), padding=(15,), groups=384)
            (3): BatchNorm1d(384, eps=1e-05, momentum=0.1, affine=True, track_running_stats=True)
            (4): SiLU()
            (5): Conv1d(384, 384, kernel_size=(1,), stride=(1,))
            (6): Dropout(p=0.0, inplace=False)
          )
        )
        (ffn2): _FeedForwardModule(
          (sequential): Sequential(
            (0): LayerNorm((384,), eps=1e-05, elementwise_affine=True)
            (1): Linear(in_features=384, out_features=1536, bias=True)
            (2): SiLU()
            (3): Dropout(p=0.0, inplace=False)
            (4): Linear(in_features=1536, out_features=384, bias=True)
            (5): Dropout(p=0.0, inplace=False)
          )
        )
        (final_layer_norm): LayerNorm((384,), eps=1e-05, elementwise_affine=True)
      )
    )
  )
  (fc): Linear(in_features=384, out_features=7, bias=True)
)
2025-02-08 11:20:37,020 (train_accelerate_ddp:951) INFO: Number of model parameters: 26165095
2025-02-08 11:20:37,020 (train_accelerate_ddp:951) INFO: Number of model parameters: 26165095
pgpu23:1295740:1295740 [0] NCCL INFO Bootstrap : Using ib1:20.20.20.23<0>
pgpu23:1295740:1295740 [0] NCCL INFO NET/Plugin : dlerror=libnccl-net.so: cannot open shared object file: No such file or directory No plugin found (libnccl-net.so), using internal implementation
…
