…
/mntnfs/lee_data1/maduo/anaconda3/envs/dia_pt2.4/lib/python3.11/site-packages/torch/nn/modules/transformer.py:307: UserWarning: enable_nested_tensor is True, but self.use_nested_tensor is False because encoder_layer.self_attn.batch_first was not True(use batch_first for better inference performance)
  warnings.warn(f"enable_nested_tensor is True, but self.use_nested_tensor is False because {why_not_sparsity_fast_path}")
2025-01-24 11:23:07,984 (train_accelerate_ddp:949) INFO: model: TSVADModel(
  (rs_dropout): Dropout(p=0.1, inplace=False)
  (speech_encoder): Wav2Vec2BertModel(
    (feature_projection): Wav2Vec2BertFeatureProjection(
      (layer_norm): LayerNorm((160,), eps=1e-05, elementwise_affine=True)
      (projection): Linear(in_features=160, out_features=1024, bias=True)
      (dropout): Dropout(p=0.0, inplace=False)
    )
    (encoder): Wav2Vec2BertEncoder(
      (dropout): Dropout(p=0.0, inplace=False)
      (layers): ModuleList(
        (0-5): 6 x Wav2Vec2BertEncoderLayer(
          (ffn1_layer_norm): LayerNorm((1024,), eps=1e-05, elementwise_affine=True)
          (ffn1): Wav2Vec2BertFeedForward(
            (intermediate_dropout): Dropout(p=0.0, inplace=False)
            (intermediate_dense): Linear(in_features=1024, out_features=4096, bias=True)
            (intermediate_act_fn): SiLU()
            (output_dense): Linear(in_features=4096, out_features=1024, bias=True)
            (output_dropout): Dropout(p=0.0, inplace=False)
          )
          (self_attn_layer_norm): LayerNorm((1024,), eps=1e-05, elementwise_affine=True)
          (self_attn_dropout): Dropout(p=0.0, inplace=False)
          (self_attn): Wav2Vec2BertSelfAttention(
            (linear_q): Linear(in_features=1024, out_features=1024, bias=True)
            (linear_k): Linear(in_features=1024, out_features=1024, bias=True)
            (linear_v): Linear(in_features=1024, out_features=1024, bias=True)
            (linear_out): Linear(in_features=1024, out_features=1024, bias=True)
            (dropout): Dropout(p=0.0, inplace=False)
            (distance_embedding): Embedding(73, 64)
          )
          (conv_module): Wav2Vec2BertConvolutionModule(
            (layer_norm): LayerNorm((1024,), eps=1e-05, elementwise_affine=True)
            (pointwise_conv1): Conv1d(1024, 2048, kernel_size=(1,), stride=(1,), bias=False)
            (glu): GLU(dim=1)
            (depthwise_conv): Conv1d(1024, 1024, kernel_size=(31,), stride=(1,), groups=1024, bias=False)
            (depthwise_layer_norm): LayerNorm((1024,), eps=1e-05, elementwise_affine=True)
            (activation): SiLU()
            (pointwise_conv2): Conv1d(1024, 1024, kernel_size=(1,), stride=(1,), bias=False)
            (dropout): Dropout(p=0.1, inplace=False)
          )
          (ffn2_layer_norm): LayerNorm((1024,), eps=1e-05, elementwise_affine=True)
          (ffn2): Wav2Vec2BertFeedForward(
            (intermediate_dropout): Dropout(p=0.0, inplace=False)
            (intermediate_dense): Linear(in_features=1024, out_features=4096, bias=True)
            (intermediate_act_fn): SiLU()
            (output_dense): Linear(in_features=4096, out_features=1024, bias=True)
            (output_dropout): Dropout(p=0.0, inplace=False)
          )
          (final_layer_norm): LayerNorm((1024,), eps=1e-05, elementwise_affine=True)
        )
      )
    )
  )
  (speech_down_or_up): Sequential(
    (0): Conv1d(1024, 192, kernel_size=(5,), stride=(2,), padding=(2,))
    (1): BatchNorm1D(
      (bn): BatchNorm1d(192, eps=1e-05, momentum=0.1, affine=True, track_running_stats=True)
    )
    (2): ReLU()
  )
  (pos_encoder): PositionalEncoding(
    (dropout): Dropout(p=0.1, inplace=False)
  )
  (single_backend): Mamba2BlockV2(
    (forward_blocks): ModuleList(
      (0-1): 2 x Block(
        (norm): RMSNorm()
        (mixer): Mamba2(
          (in_proj): Linear(in_features=384, out_features=3608, bias=False)
          (conv1d): Conv1d(2048, 2048, kernel_size=(4,), stride=(1,), padding=(3,), groups=2048)
          (act): SiLU()
          (norm): RMSNorm()
          (out_proj): Linear(in_features=1536, out_features=384, bias=False)
        )
      )
    )
    (backward_blocks): ModuleList(
      (0-1): 2 x Block(
        (norm): RMSNorm()
        (mixer): Mamba2(
          (in_proj): Linear(in_features=384, out_features=3608, bias=False)
          (conv1d): Conv1d(2048, 2048, kernel_size=(4,), stride=(1,), padding=(3,), groups=2048)
          (act): SiLU()
          (norm): RMSNorm()
          (out_proj): Linear(in_features=1536, out_features=384, bias=False)
        )
      )
    )
  )
  (backend_down): Sequential(
    (0): Conv1d(5376, 384, kernel_size=(5,), stride=(1,), padding=(2,))
    (1): BatchNorm1D(
      (bn): BatchNorm1d(384, eps=1e-05, momentum=0.1, affine=True, track_running_stats=True)
    )
    (2): ReLU()
  )
  (multi_backend): TransformerEncoder(
    (layers): ModuleList(
      (0-1): 2 x TransformerEncoderLayer(
        (self_attn): MultiheadAttention(
          (out_proj): NonDynamicallyQuantizableLinear(in_features=384, out_features=384, bias=True)
        )
        (linear1): Linear(in_features=384, out_features=1536, bias=True)
        (dropout): Dropout(p=0.1, inplace=False)
        (linear2): Linear(in_features=1536, out_features=384, bias=True)
        (norm1): LayerNorm((384,), eps=1e-05, elementwise_affine=True)
        (norm2): LayerNorm((384,), eps=1e-05, elementwise_affine=True)
        (dropout1): Dropout(p=0.1, inplace=False)
        (dropout2): Dropout(p=0.1, inplace=False)
      )
    )
  )
  (fc): Linear(in_features=384, out_features=7, bias=True)
)
2025-01-24 11:23:07,984 (train_accelerate_ddp:949) INFO: model: TSVADModel(
  (rs_dropout): Dropout(p=0.1, inplace=False)
  (speech_encoder): Wav2Vec2BertModel(
    (feature_projection): Wav2Vec2BertFeatureProjection(
      (layer_norm): LayerNorm((160,), eps=1e-05, elementwise_affine=True)
      (projection): Linear(in_features=160, out_features=1024, bias=True)
      (dropout): Dropout(p=0.0, inplace=False)
    )
    (encoder): Wav2Vec2BertEncoder(
      (dropout): Dropout(p=0.0, inplace=False)
      (layers): ModuleList(
        (0-5): 6 x Wav2Vec2BertEncoderLayer(
          (ffn1_layer_norm): LayerNorm((1024,), eps=1e-05, elementwise_affine=True)
          (ffn1): Wav2Vec2BertFeedForward(
            (intermediate_dropout): Dropout(p=0.0, inplace=False)
            (intermediate_dense): Linear(in_features=1024, out_features=4096, bias=True)
            (intermediate_act_fn): SiLU()
            (output_dense): Linear(in_features=4096, out_features=1024, bias=True)
            (output_dropout): Dropout(p=0.0, inplace=False)
          )
          (self_attn_layer_norm): LayerNorm((1024,), eps=1e-05, elementwise_affine=True)
          (self_attn_dropout): Dropout(p=0.0, inplace=False)
          (self_attn): Wav2Vec2BertSelfAttention(
            (linear_q): Linear(in_features=1024, out_features=1024, bias=True)
            (linear_k): Linear(in_features=1024, out_features=1024, bias=True)
            (linear_v): Linear(in_features=1024, out_features=1024, bias=True)
            (linear_out): Linear(in_features=1024, out_features=1024, bias=True)
            (dropout): Dropout(p=0.0, inplace=False)
            (distance_embedding): Embedding(73, 64)
          )
          (conv_module): Wav2Vec2BertConvolutionModule(
            (layer_norm): LayerNorm((1024,), eps=1e-05, elementwise_affine=True)
            (pointwise_conv1): Conv1d(1024, 2048, kernel_size=(1,), stride=(1,), bias=False)
            (glu): GLU(dim=1)
            (depthwise_conv): Conv1d(1024, 1024, kernel_size=(31,), stride=(1,), groups=1024, bias=False)
            (depthwise_layer_norm): LayerNorm((1024,), eps=1e-05, elementwise_affine=True)
            (activation): SiLU()
            (pointwise_conv2): Conv1d(1024, 1024, kernel_size=(1,), stride=(1,), bias=False)
            (dropout): Dropout(p=0.1, inplace=False)
          )
          (ffn2_layer_norm): LayerNorm((1024,), eps=1e-05, elementwise_affine=True)
          (ffn2): Wav2Vec2BertFeedForward(
            (intermediate_dropout): Dropout(p=0.0, inplace=False)
            (intermediate_dense): Linear(in_features=1024, out_features=4096, bias=True)
            (intermediate_act_fn): SiLU()
            (output_dense): Linear(in_features=4096, out_features=1024, bias=True)
            (output_dropout): Dropout(p=0.0, inplace=False)
          )
          (final_layer_norm): LayerNorm((1024,), eps=1e-05, elementwise_affine=True)
        )
      )
    )
  )
  (speech_down_or_up): Sequential(
    (0): Conv1d(1024, 192, kernel_size=(5,), stride=(2,), padding=(2,))
    (1): BatchNorm1D(
      (bn): BatchNorm1d(192, eps=1e-05, momentum=0.1, affine=True, track_running_stats=True)
    )
    (2): ReLU()
  )
  (pos_encoder): PositionalEncoding(
    (dropout): Dropout(p=0.1, inplace=False)
  )
  (single_backend): Mamba2BlockV2(
    (forward_blocks): ModuleList(
      (0-1): 2 x Block(
        (norm): RMSNorm()
        (mixer): Mamba2(
          (in_proj): Linear(in_features=384, out_features=3608, bias=False)
          (conv1d): Conv1d(2048, 2048, kernel_size=(4,), stride=(1,), padding=(3,), groups=2048)
          (act): SiLU()
          (norm): RMSNorm()
          (out_proj): Linear(in_features=1536, out_features=384, bias=False)
        )
      )
    )
    (backward_blocks): ModuleList(
      (0-1): 2 x Block(
        (norm): RMSNorm()
        (mixer): Mamba2(
          (in_proj): Linear(in_features=384, out_features=3608, bias=False)
          (conv1d): Conv1d(2048, 2048, kernel_size=(4,), stride=(1,), padding=(3,), groups=2048)
          (act): SiLU()
          (norm): RMSNorm()
          (out_proj): Linear(in_features=1536, out_features=384, bias=False)
        )
      )
    )
  )
  (backend_down): Sequential(
    (0): Conv1d(5376, 384, kernel_size=(5,), stride=(1,), padding=(2,))
    (1): BatchNorm1D(
      (bn): BatchNorm1d(384, eps=1e-05, momentum=0.1, affine=True, track_running_stats=True)
    )
    (2): ReLU()
  )
  (multi_backend): TransformerEncoder(
    (layers): ModuleList(
      (0-1): 2 x TransformerEncoderLayer(
        (self_attn): MultiheadAttention(
          (out_proj): NonDynamicallyQuantizableLinear(in_features=384, out_features=384, bias=True)
        )
        (linear1): Linear(in_features=384, out_features=1536, bias=True)
        (dropout): Dropout(p=0.1, inplace=False)
        (linear2): Linear(in_features=1536, out_features=384, bias=True)
        (norm1): LayerNorm((384,), eps=1e-05, elementwise_affine=True)
        (norm2): LayerNorm((384,), eps=1e-05, elementwise_affine=True)
        (dropout1): Dropout(p=0.1, inplace=False)
        (dropout2): Dropout(p=0.1, inplace=False)
      )
    )
  )
  (fc): Linear(in_features=384, out_features=7, bias=True)
)
2025-01-24 11:23:07,985 (train_accelerate_ddp:951) INFO: Number of model parameters: 168056359
2025-01-24 11:23:07,986 (train_accelerate_ddp:951) INFO: Number of model parameters: 168056359
pgpu18:3740797:3740797 [0] NCCL INFO Bootstrap : Using ib1:20.20.20.18<0>
pgpu18:3740797:3740797 [0] NCCL INFO NET/Plugin : dlerror=libnccl-net.so: cannot open shared object file: No such file or directory No plugin found (libnccl-net.so), using internal implementation
…
