…
/home/maduo/.conda/envs/speaker_diarization/lib/python3.11/site-packages/torch/nn/modules/transformer.py:282: UserWarning: enable_nested_tensor is True, but self.use_nested_tensor is False because encoder_layer.self_attn.batch_first was not True(use batch_first for better inference performance)
  warnings.warn(f"enable_nested_tensor is True, but self.use_nested_tensor is False because {why_not_sparsity_fast_path}")
2024-12-18 16:01:39,803 (train_accelerate_ddp:932) INFO: model: TSVADModel(
  (rs_dropout): Dropout(p=0.1, inplace=False)
  (speech_encoder): CAMPPlus(
    (head): FCM(
      (conv1): Conv2d(1, 32, kernel_size=(3, 3), stride=(1, 1), padding=(1, 1), bias=False)
      (bn1): BatchNorm2d(32, eps=1e-05, momentum=0.1, affine=True, track_running_stats=True)
      (layer1): Sequential(
        (0): BasicResBlock(
          (conv1): Conv2d(32, 32, kernel_size=(3, 3), stride=(2, 1), padding=(1, 1), bias=False)
          (bn1): BatchNorm2d(32, eps=1e-05, momentum=0.1, affine=True, track_running_stats=True)
          (conv2): Conv2d(32, 32, kernel_size=(3, 3), stride=(1, 1), padding=(1, 1), bias=False)
          (bn2): BatchNorm2d(32, eps=1e-05, momentum=0.1, affine=True, track_running_stats=True)
          (shortcut): Sequential(
            (0): Conv2d(32, 32, kernel_size=(1, 1), stride=(2, 1), bias=False)
            (1): BatchNorm2d(32, eps=1e-05, momentum=0.1, affine=True, track_running_stats=True)
          )
        )
        (1): BasicResBlock(
          (conv1): Conv2d(32, 32, kernel_size=(3, 3), stride=(1, 1), padding=(1, 1), bias=False)
          (bn1): BatchNorm2d(32, eps=1e-05, momentum=0.1, affine=True, track_running_stats=True)
          (conv2): Conv2d(32, 32, kernel_size=(3, 3), stride=(1, 1), padding=(1, 1), bias=False)
          (bn2): BatchNorm2d(32, eps=1e-05, momentum=0.1, affine=True, track_running_stats=True)
          (shortcut): Sequential()
        )
      )
      (layer2): Sequential(
        (0): BasicResBlock(
          (conv1): Conv2d(32, 32, kernel_size=(3, 3), stride=(2, 1), padding=(1, 1), bias=False)
          (bn1): BatchNorm2d(32, eps=1e-05, momentum=0.1, affine=True, track_running_stats=True)
          (conv2): Conv2d(32, 32, kernel_size=(3, 3), stride=(1, 1), padding=(1, 1), bias=False)
          (bn2): BatchNorm2d(32, eps=1e-05, momentum=0.1, affine=True, track_running_stats=True)
          (shortcut): Sequential(
            (0): Conv2d(32, 32, kernel_size=(1, 1), stride=(2, 1), bias=False)
            (1): BatchNorm2d(32, eps=1e-05, momentum=0.1, affine=True, track_running_stats=True)
          )
        )
        (1): BasicResBlock(
          (conv1): Conv2d(32, 32, kernel_size=(3, 3), stride=(1, 1), padding=(1, 1), bias=False)
          (bn1): BatchNorm2d(32, eps=1e-05, momentum=0.1, affine=True, track_running_stats=True)
          (conv2): Conv2d(32, 32, kernel_size=(3, 3), stride=(1, 1), padding=(1, 1), bias=False)
          (bn2): BatchNorm2d(32, eps=1e-05, momentum=0.1, affine=True, track_running_stats=True)
          (shortcut): Sequential()
        )
      )
      (conv2): Conv2d(32, 32, kernel_size=(3, 3), stride=(2, 1), padding=(1, 1), bias=False)
      (bn2): BatchNorm2d(32, eps=1e-05, momentum=0.1, affine=True, track_running_stats=True)
    )
    (xvector): Sequential(
      (tdnn): TDNNLayer(
        (linear): Conv1d(320, 128, kernel_size=(5,), stride=(2,), padding=(2,), bias=False)
        (nonlinear): Sequential(
          (batchnorm): BatchNorm1d(128, eps=1e-05, momentum=0.1, affine=True, track_running_stats=True)
          (relu): ReLU(inplace=True)
        )
      )
      (block1): CAMDenseTDNNBlock(
        (0): CAMDenseTDNNLayer(
          (nonlinear1): Sequential(
            (batchnorm): BatchNorm1d(128, eps=1e-05, momentum=0.1, affine=True, track_running_stats=True)
            (relu): ReLU(inplace=True)
          )
          (linear1): Conv1d(128, 128, kernel_size=(1,), stride=(1,), bias=False)
          (nonlinear2): Sequential(
            (batchnorm): BatchNorm1d(128, eps=1e-05, momentum=0.1, affine=True, track_running_stats=True)
            (relu): ReLU(inplace=True)
          )
          (cam_layer): CAMLayer(
            (linear_local): Conv1d(128, 32, kernel_size=(3,), stride=(1,), padding=(1,), bias=False)
            (linear1): Conv1d(128, 64, kernel_size=(1,), stride=(1,))
            (relu): ReLU(inplace=True)
            (linear2): Conv1d(64, 32, kernel_size=(1,), stride=(1,))
            (sigmoid): Sigmoid()
          )
        )
        (1): CAMDenseTDNNLayer(
          (nonlinear1): Sequential(
            (batchnorm): BatchNorm1d(160, eps=1e-05, momentum=0.1, affine=True, track_running_stats=True)
            (relu): ReLU(inplace=True)
          )
          (linear1): Conv1d(160, 128, kernel_size=(1,), stride=(1,), bias=False)
          (nonlinear2): Sequential(
            (batchnorm): BatchNorm1d(128, eps=1e-05, momentum=0.1, affine=True, track_running_stats=True)
            (relu): ReLU(inplace=True)
          )
          (cam_layer): CAMLayer(
            (linear_local): Conv1d(128, 32, kernel_size=(3,), stride=(1,), padding=(1,), bias=False)
            (linear1): Conv1d(128, 64, kernel_size=(1,), stride=(1,))
            (relu): ReLU(inplace=True)
            (linear2): Conv1d(64, 32, kernel_size=(1,), stride=(1,))
            (sigmoid): Sigmoid()
          )
        )
        (2): CAMDenseTDNNLayer(
          (nonlinear1): Sequential(
            (batchnorm): BatchNorm1d(192, eps=1e-05, momentum=0.1, affine=True, track_running_stats=True)
            (relu): ReLU(inplace=True)
          )
          (linear1): Conv1d(192, 128, kernel_size=(1,), stride=(1,), bias=False)
          (nonlinear2): Sequential(
            (batchnorm): BatchNorm1d(128, eps=1e-05, momentum=0.1, affine=True, track_running_stats=True)
            (relu): ReLU(inplace=True)
          )
          (cam_layer): CAMLayer(
            (linear_local): Conv1d(128, 32, kernel_size=(3,), stride=(1,), padding=(1,), bias=False)
            (linear1): Conv1d(128, 64, kernel_size=(1,), stride=(1,))
            (relu): ReLU(inplace=True)
            (linear2): Conv1d(64, 32, kernel_size=(1,), stride=(1,))
            (sigmoid): Sigmoid()
          )
        )
        (3): CAMDenseTDNNLayer(
          (nonlinear1): Sequential(
            (batchnorm): BatchNorm1d(224, eps=1e-05, momentum=0.1, affine=True, track_running_stats=True)
            (relu): ReLU(inplace=True)
          )
          (linear1): Conv1d(224, 128, kernel_size=(1,), stride=(1,), bias=False)
          (nonlinear2): Sequential(
            (batchnorm): BatchNorm1d(128, eps=1e-05, momentum=0.1, affine=True, track_running_stats=True)
            (relu): ReLU(inplace=True)
          )
          (cam_layer): CAMLayer(
            (linear_local): Conv1d(128, 32, kernel_size=(3,), stride=(1,), padding=(1,), bias=False)
            (linear1): Conv1d(128, 64, kernel_size=(1,), stride=(1,))
            (relu): ReLU(inplace=True)
            (linear2): Conv1d(64, 32, kernel_size=(1,), stride=(1,))
            (sigmoid): Sigmoid()
          )
        )
        (4): CAMDenseTDNNLayer(
          (nonlinear1): Sequential(
            (batchnorm): BatchNorm1d(256, eps=1e-05, momentum=0.1, affine=True, track_running_stats=True)
            (relu): ReLU(inplace=True)
          )
          (linear1): Conv1d(256, 128, kernel_size=(1,), stride=(1,), bias=False)
          (nonlinear2): Sequential(
            (batchnorm): BatchNorm1d(128, eps=1e-05, momentum=0.1, affine=True, track_running_stats=True)
            (relu): ReLU(inplace=True)
          )
          (cam_layer): CAMLayer(
            (linear_local): Conv1d(128, 32, kernel_size=(3,), stride=(1,), padding=(1,), bias=False)
            (linear1): Conv1d(128, 64, kernel_size=(1,), stride=(1,))
            (relu): ReLU(inplace=True)
            (linear2): Conv1d(64, 32, kernel_size=(1,), stride=(1,))
            (sigmoid): Sigmoid()
          )
        )
        (5): CAMDenseTDNNLayer(
          (nonlinear1): Sequential(
            (batchnorm): BatchNorm1d(288, eps=1e-05, momentum=0.1, affine=True, track_running_stats=True)
            (relu): ReLU(inplace=True)
          )
          (linear1): Conv1d(288, 128, kernel_size=(1,), stride=(1,), bias=False)
          (nonlinear2): Sequential(
            (batchnorm): BatchNorm1d(128, eps=1e-05, momentum=0.1, affine=True, track_running_stats=True)
            (relu): ReLU(inplace=True)
          )
          (cam_layer): CAMLayer(
            (linear_local): Conv1d(128, 32, kernel_size=(3,), stride=(1,), padding=(1,), bias=False)
            (linear1): Conv1d(128, 64, kernel_size=(1,), stride=(1,))
            (relu): ReLU(inplace=True)
            (linear2): Conv1d(64, 32, kernel_size=(1,), stride=(1,))
            (sigmoid): Sigmoid()
          )
        )
        (6): CAMDenseTDNNLayer(
          (nonlinear1): Sequential(
            (batchnorm): BatchNorm1d(320, eps=1e-05, momentum=0.1, affine=True, track_running_stats=True)
            (relu): ReLU(inplace=True)
          )
          (linear1): Conv1d(320, 128, kernel_size=(1,), stride=(1,), bias=False)
          (nonlinear2): Sequential(
            (batchnorm): BatchNorm1d(128, eps=1e-05, momentum=0.1, affine=True, track_running_stats=True)
            (relu): ReLU(inplace=True)
          )
          (cam_layer): CAMLayer(
            (linear_local): Conv1d(128, 32, kernel_size=(3,), stride=(1,), padding=(1,), bias=False)
            (linear1): Conv1d(128, 64, kernel_size=(1,), stride=(1,))
            (relu): ReLU(inplace=True)
            (linear2): Conv1d(64, 32, kernel_size=(1,), stride=(1,))
            (sigmoid): Sigmoid()
          )
        )
        (7): CAMDenseTDNNLayer(
          (nonlinear1): Sequential(
            (batchnorm): BatchNorm1d(352, eps=1e-05, momentum=0.1, affine=True, track_running_stats=True)
            (relu): ReLU(inplace=True)
          )
          (linear1): Conv1d(352, 128, kernel_size=(1,), stride=(1,), bias=False)
          (nonlinear2): Sequential(
            (batchnorm): BatchNorm1d(128, eps=1e-05, momentum=0.1, affine=True, track_running_stats=True)
            (relu): ReLU(inplace=True)
          )
          (cam_layer): CAMLayer(
            (linear_local): Conv1d(128, 32, kernel_size=(3,), stride=(1,), padding=(1,), bias=False)
            (linear1): Conv1d(128, 64, kernel_size=(1,), stride=(1,))
            (relu): ReLU(inplace=True)
            (linear2): Conv1d(64, 32, kernel_size=(1,), stride=(1,))
            (sigmoid): Sigmoid()
          )
        )
        (8): CAMDenseTDNNLayer(
          (nonlinear1): Sequential(
            (batchnorm): BatchNorm1d(384, eps=1e-05, momentum=0.1, affine=True, track_running_stats=True)
            (relu): ReLU(inplace=True)
          )
          (linear1): Conv1d(384, 128, kernel_size=(1,), stride=(1,), bias=False)
          (nonlinear2): Sequential(
            (batchnorm): BatchNorm1d(128, eps=1e-05, momentum=0.1, affine=True, track_running_stats=True)
            (relu): ReLU(inplace=True)
          )
          (cam_layer): CAMLayer(
            (linear_local): Conv1d(128, 32, kernel_size=(3,), stride=(1,), padding=(1,), bias=False)
            (linear1): Conv1d(128, 64, kernel_size=(1,), stride=(1,))
            (relu): ReLU(inplace=True)
            (linear2): Conv1d(64, 32, kernel_size=(1,), stride=(1,))
            (sigmoid): Sigmoid()
          )
        )
        (9): CAMDenseTDNNLayer(
          (nonlinear1): Sequential(
            (batchnorm): BatchNorm1d(416, eps=1e-05, momentum=0.1, affine=True, track_running_stats=True)
            (relu): ReLU(inplace=True)
          )
          (linear1): Conv1d(416, 128, kernel_size=(1,), stride=(1,), bias=False)
          (nonlinear2): Sequential(
            (batchnorm): BatchNorm1d(128, eps=1e-05, momentum=0.1, affine=True, track_running_stats=True)
            (relu): ReLU(inplace=True)
          )
          (cam_layer): CAMLayer(
            (linear_local): Conv1d(128, 32, kernel_size=(3,), stride=(1,), padding=(1,), bias=False)
            (linear1): Conv1d(128, 64, kernel_size=(1,), stride=(1,))
            (relu): ReLU(inplace=True)
            (linear2): Conv1d(64, 32, kernel_size=(1,), stride=(1,))
            (sigmoid): Sigmoid()
          )
        )
        (10): CAMDenseTDNNLayer(
          (nonlinear1): Sequential(
            (batchnorm): BatchNorm1d(448, eps=1e-05, momentum=0.1, affine=True, track_running_stats=True)
            (relu): ReLU(inplace=True)
          )
          (linear1): Conv1d(448, 128, kernel_size=(1,), stride=(1,), bias=False)
          (nonlinear2): Sequential(
            (batchnorm): BatchNorm1d(128, eps=1e-05, momentum=0.1, affine=True, track_running_stats=True)
            (relu): ReLU(inplace=True)
          )
          (cam_layer): CAMLayer(
            (linear_local): Conv1d(128, 32, kernel_size=(3,), stride=(1,), padding=(1,), bias=False)
            (linear1): Conv1d(128, 64, kernel_size=(1,), stride=(1,))
            (relu): ReLU(inplace=True)
            (linear2): Conv1d(64, 32, kernel_size=(1,), stride=(1,))
            (sigmoid): Sigmoid()
          )
        )
        (11): CAMDenseTDNNLayer(
          (nonlinear1): Sequential(
            (batchnorm): BatchNorm1d(480, eps=1e-05, momentum=0.1, affine=True, track_running_stats=True)
            (relu): ReLU(inplace=True)
          )
          (linear1): Conv1d(480, 128, kernel_size=(1,), stride=(1,), bias=False)
          (nonlinear2): Sequential(
            (batchnorm): BatchNorm1d(128, eps=1e-05, momentum=0.1, affine=True, track_running_stats=True)
            (relu): ReLU(inplace=True)
          )
          (cam_layer): CAMLayer(
            (linear_local): Conv1d(128, 32, kernel_size=(3,), stride=(1,), padding=(1,), bias=False)
            (linear1): Conv1d(128, 64, kernel_size=(1,), stride=(1,))
            (relu): ReLU(inplace=True)
            (linear2): Conv1d(64, 32, kernel_size=(1,), stride=(1,))
            (sigmoid): Sigmoid()
          )
        )
      )
      (transit1): TransitLayer(
        (nonlinear): Sequential(
          (batchnorm): BatchNorm1d(512, eps=1e-05, momentum=0.1, affine=True, track_running_stats=True)
          (relu): ReLU(inplace=True)
        )
        (linear): Conv1d(512, 256, kernel_size=(1,), stride=(1,), bias=False)
      )
      (block2): CAMDenseTDNNBlock(
        (0): CAMDenseTDNNLayer(
          (nonlinear1): Sequential(
            (batchnorm): BatchNorm1d(256, eps=1e-05, momentum=0.1, affine=True, track_running_stats=True)
            (relu): ReLU(inplace=True)
          )
          (linear1): Conv1d(256, 128, kernel_size=(1,), stride=(1,), bias=False)
          (nonlinear2): Sequential(
            (batchnorm): BatchNorm1d(128, eps=1e-05, momentum=0.1, affine=True, track_running_stats=True)
            (relu): ReLU(inplace=True)
          )
          (cam_layer): CAMLayer(
            (linear_local): Conv1d(128, 32, kernel_size=(3,), stride=(1,), padding=(2,), dilation=(2,), bias=False)
            (linear1): Conv1d(128, 64, kernel_size=(1,), stride=(1,))
            (relu): ReLU(inplace=True)
            (linear2): Conv1d(64, 32, kernel_size=(1,), stride=(1,))
            (sigmoid): Sigmoid()
          )
        )
        (1): CAMDenseTDNNLayer(
          (nonlinear1): Sequential(
            (batchnorm): BatchNorm1d(288, eps=1e-05, momentum=0.1, affine=True, track_running_stats=True)
            (relu): ReLU(inplace=True)
          )
          (linear1): Conv1d(288, 128, kernel_size=(1,), stride=(1,), bias=False)
          (nonlinear2): Sequential(
            (batchnorm): BatchNorm1d(128, eps=1e-05, momentum=0.1, affine=True, track_running_stats=True)
            (relu): ReLU(inplace=True)
          )
          (cam_layer): CAMLayer(
            (linear_local): Conv1d(128, 32, kernel_size=(3,), stride=(1,), padding=(2,), dilation=(2,), bias=False)
            (linear1): Conv1d(128, 64, kernel_size=(1,), stride=(1,))
            (relu): ReLU(inplace=True)
            (linear2): Conv1d(64, 32, kernel_size=(1,), stride=(1,))
            (sigmoid): Sigmoid()
          )
        )
        (2): CAMDenseTDNNLayer(
          (nonlinear1): Sequential(
            (batchnorm): BatchNorm1d(320, eps=1e-05, momentum=0.1, affine=True, track_running_stats=True)
            (relu): ReLU(inplace=True)
          )
          (linear1): Conv1d(320, 128, kernel_size=(1,), stride=(1,), bias=False)
          (nonlinear2): Sequential(
            (batchnorm): BatchNorm1d(128, eps=1e-05, momentum=0.1, affine=True, track_running_stats=True)
            (relu): ReLU(inplace=True)
          )
          (cam_layer): CAMLayer(
            (linear_local): Conv1d(128, 32, kernel_size=(3,), stride=(1,), padding=(2,), dilation=(2,), bias=False)
            (linear1): Conv1d(128, 64, kernel_size=(1,), stride=(1,))
            (relu): ReLU(inplace=True)
            (linear2): Conv1d(64, 32, kernel_size=(1,), stride=(1,))
            (sigmoid): Sigmoid()
          )
        )
        (3): CAMDenseTDNNLayer(
          (nonlinear1): Sequential(
            (batchnorm): BatchNorm1d(352, eps=1e-05, momentum=0.1, affine=True, track_running_stats=True)
            (relu): ReLU(inplace=True)
          )
          (linear1): Conv1d(352, 128, kernel_size=(1,), stride=(1,), bias=False)
          (nonlinear2): Sequential(
            (batchnorm): BatchNorm1d(128, eps=1e-05, momentum=0.1, affine=True, track_running_stats=True)
            (relu): ReLU(inplace=True)
          )
          (cam_layer): CAMLayer(
            (linear_local): Conv1d(128, 32, kernel_size=(3,), stride=(1,), padding=(2,), dilation=(2,), bias=False)
            (linear1): Conv1d(128, 64, kernel_size=(1,), stride=(1,))
            (relu): ReLU(inplace=True)
            (linear2): Conv1d(64, 32, kernel_size=(1,), stride=(1,))
            (sigmoid): Sigmoid()
          )
        )
        (4): CAMDenseTDNNLayer(
          (nonlinear1): Sequential(
            (batchnorm): BatchNorm1d(384, eps=1e-05, momentum=0.1, affine=True, track_running_stats=True)
            (relu): ReLU(inplace=True)
          )
          (linear1): Conv1d(384, 128, kernel_size=(1,), stride=(1,), bias=False)
          (nonlinear2): Sequential(
            (batchnorm): BatchNorm1d(128, eps=1e-05, momentum=0.1, affine=True, track_running_stats=True)
            (relu): ReLU(inplace=True)
          )
          (cam_layer): CAMLayer(
            (linear_local): Conv1d(128, 32, kernel_size=(3,), stride=(1,), padding=(2,), dilation=(2,), bias=False)
            (linear1): Conv1d(128, 64, kernel_size=(1,), stride=(1,))
            (relu): ReLU(inplace=True)
            (linear2): Conv1d(64, 32, kernel_size=(1,), stride=(1,))
            (sigmoid): Sigmoid()
          )
        )
        (5): CAMDenseTDNNLayer(
          (nonlinear1): Sequential(
            (batchnorm): BatchNorm1d(416, eps=1e-05, momentum=0.1, affine=True, track_running_stats=True)
            (relu): ReLU(inplace=True)
          )
          (linear1): Conv1d(416, 128, kernel_size=(1,), stride=(1,), bias=False)
          (nonlinear2): Sequential(
            (batchnorm): BatchNorm1d(128, eps=1e-05, momentum=0.1, affine=True, track_running_stats=True)
            (relu): ReLU(inplace=True)
          )
          (cam_layer): CAMLayer(
            (linear_local): Conv1d(128, 32, kernel_size=(3,), stride=(1,), padding=(2,), dilation=(2,), bias=False)
            (linear1): Conv1d(128, 64, kernel_size=(1,), stride=(1,))
            (relu): ReLU(inplace=True)
            (linear2): Conv1d(64, 32, kernel_size=(1,), stride=(1,))
            (sigmoid): Sigmoid()
          )
        )
        (6): CAMDenseTDNNLayer(
          (nonlinear1): Sequential(
            (batchnorm): BatchNorm1d(448, eps=1e-05, momentum=0.1, affine=True, track_running_stats=True)
            (relu): ReLU(inplace=True)
          )
          (linear1): Conv1d(448, 128, kernel_size=(1,), stride=(1,), bias=False)
          (nonlinear2): Sequential(
            (batchnorm): BatchNorm1d(128, eps=1e-05, momentum=0.1, affine=True, track_running_stats=True)
            (relu): ReLU(inplace=True)
          )
          (cam_layer): CAMLayer(
            (linear_local): Conv1d(128, 32, kernel_size=(3,), stride=(1,), padding=(2,), dilation=(2,), bias=False)
            (linear1): Conv1d(128, 64, kernel_size=(1,), stride=(1,))
            (relu): ReLU(inplace=True)
            (linear2): Conv1d(64, 32, kernel_size=(1,), stride=(1,))
            (sigmoid): Sigmoid()
          )
        )
        (7): CAMDenseTDNNLayer(
          (nonlinear1): Sequential(
            (batchnorm): BatchNorm1d(480, eps=1e-05, momentum=0.1, affine=True, track_running_stats=True)
            (relu): ReLU(inplace=True)
          )
          (linear1): Conv1d(480, 128, kernel_size=(1,), stride=(1,), bias=False)
          (nonlinear2): Sequential(
            (batchnorm): BatchNorm1d(128, eps=1e-05, momentum=0.1, affine=True, track_running_stats=True)
            (relu): ReLU(inplace=True)
          )
          (cam_layer): CAMLayer(
            (linear_local): Conv1d(128, 32, kernel_size=(3,), stride=(1,), padding=(2,), dilation=(2,), bias=False)
            (linear1): Conv1d(128, 64, kernel_size=(1,), stride=(1,))
            (relu): ReLU(inplace=True)
            (linear2): Conv1d(64, 32, kernel_size=(1,), stride=(1,))
            (sigmoid): Sigmoid()
          )
        )
        (8): CAMDenseTDNNLayer(
          (nonlinear1): Sequential(
            (batchnorm): BatchNorm1d(512, eps=1e-05, momentum=0.1, affine=True, track_running_stats=True)
            (relu): ReLU(inplace=True)
          )
          (linear1): Conv1d(512, 128, kernel_size=(1,), stride=(1,), bias=False)
          (nonlinear2): Sequential(
            (batchnorm): BatchNorm1d(128, eps=1e-05, momentum=0.1, affine=True, track_running_stats=True)
            (relu): ReLU(inplace=True)
          )
          (cam_layer): CAMLayer(
            (linear_local): Conv1d(128, 32, kernel_size=(3,), stride=(1,), padding=(2,), dilation=(2,), bias=False)
            (linear1): Conv1d(128, 64, kernel_size=(1,), stride=(1,))
            (relu): ReLU(inplace=True)
            (linear2): Conv1d(64, 32, kernel_size=(1,), stride=(1,))
            (sigmoid): Sigmoid()
          )
        )
        (9): CAMDenseTDNNLayer(
          (nonlinear1): Sequential(
            (batchnorm): BatchNorm1d(544, eps=1e-05, momentum=0.1, affine=True, track_running_stats=True)
            (relu): ReLU(inplace=True)
          )
          (linear1): Conv1d(544, 128, kernel_size=(1,), stride=(1,), bias=False)
          (nonlinear2): Sequential(
            (batchnorm): BatchNorm1d(128, eps=1e-05, momentum=0.1, affine=True, track_running_stats=True)
            (relu): ReLU(inplace=True)
          )
          (cam_layer): CAMLayer(
            (linear_local): Conv1d(128, 32, kernel_size=(3,), stride=(1,), padding=(2,), dilation=(2,), bias=False)
            (linear1): Conv1d(128, 64, kernel_size=(1,), stride=(1,))
            (relu): ReLU(inplace=True)
            (linear2): Conv1d(64, 32, kernel_size=(1,), stride=(1,))
            (sigmoid): Sigmoid()
          )
        )
        (10): CAMDenseTDNNLayer(
          (nonlinear1): Sequential(
            (batchnorm): BatchNorm1d(576, eps=1e-05, momentum=0.1, affine=True, track_running_stats=True)
            (relu): ReLU(inplace=True)
          )
          (linear1): Conv1d(576, 128, kernel_size=(1,), stride=(1,), bias=False)
          (nonlinear2): Sequential(
            (batchnorm): BatchNorm1d(128, eps=1e-05, momentum=0.1, affine=True, track_running_stats=True)
            (relu): ReLU(inplace=True)
          )
          (cam_layer): CAMLayer(
            (linear_local): Conv1d(128, 32, kernel_size=(3,), stride=(1,), padding=(2,), dilation=(2,), bias=False)
            (linear1): Conv1d(128, 64, kernel_size=(1,), stride=(1,))
            (relu): ReLU(inplace=True)
            (linear2): Conv1d(64, 32, kernel_size=(1,), stride=(1,))
            (sigmoid): Sigmoid()
          )
        )
        (11): CAMDenseTDNNLayer(
          (nonlinear1): Sequential(
            (batchnorm): BatchNorm1d(608, eps=1e-05, momentum=0.1, affine=True, track_running_stats=True)
            (relu): ReLU(inplace=True)
          )
          (linear1): Conv1d(608, 128, kernel_size=(1,), stride=(1,), bias=False)
          (nonlinear2): Sequential(
            (batchnorm): BatchNorm1d(128, eps=1e-05, momentum=0.1, affine=True, track_running_stats=True)
            (relu): ReLU(inplace=True)
          )
          (cam_layer): CAMLayer(
            (linear_local): Conv1d(128, 32, kernel_size=(3,), stride=(1,), padding=(2,), dilation=(2,), bias=False)
            (linear1): Conv1d(128, 64, kernel_size=(1,), stride=(1,))
            (relu): ReLU(inplace=True)
            (linear2): Conv1d(64, 32, kernel_size=(1,), stride=(1,))
            (sigmoid): Sigmoid()
          )
        )
        (12): CAMDenseTDNNLayer(
          (nonlinear1): Sequential(
            (batchnorm): BatchNorm1d(640, eps=1e-05, momentum=0.1, affine=True, track_running_stats=True)
            (relu): ReLU(inplace=True)
          )
          (linear1): Conv1d(640, 128, kernel_size=(1,), stride=(1,), bias=False)
          (nonlinear2): Sequential(
            (batchnorm): BatchNorm1d(128, eps=1e-05, momentum=0.1, affine=True, track_running_stats=True)
            (relu): ReLU(inplace=True)
          )
          (cam_layer): CAMLayer(
            (linear_local): Conv1d(128, 32, kernel_size=(3,), stride=(1,), padding=(2,), dilation=(2,), bias=False)
            (linear1): Conv1d(128, 64, kernel_size=(1,), stride=(1,))
            (relu): ReLU(inplace=True)
            (linear2): Conv1d(64, 32, kernel_size=(1,), stride=(1,))
            (sigmoid): Sigmoid()
          )
        )
        (13): CAMDenseTDNNLayer(
          (nonlinear1): Sequential(
            (batchnorm): BatchNorm1d(672, eps=1e-05, momentum=0.1, affine=True, track_running_stats=True)
            (relu): ReLU(inplace=True)
          )
          (linear1): Conv1d(672, 128, kernel_size=(1,), stride=(1,), bias=False)
          (nonlinear2): Sequential(
            (batchnorm): BatchNorm1d(128, eps=1e-05, momentum=0.1, affine=True, track_running_stats=True)
            (relu): ReLU(inplace=True)
          )
          (cam_layer): CAMLayer(
            (linear_local): Conv1d(128, 32, kernel_size=(3,), stride=(1,), padding=(2,), dilation=(2,), bias=False)
            (linear1): Conv1d(128, 64, kernel_size=(1,), stride=(1,))
            (relu): ReLU(inplace=True)
            (linear2): Conv1d(64, 32, kernel_size=(1,), stride=(1,))
            (sigmoid): Sigmoid()
          )
        )
        (14): CAMDenseTDNNLayer(
          (nonlinear1): Sequential(
            (batchnorm): BatchNorm1d(704, eps=1e-05, momentum=0.1, affine=True, track_running_stats=True)
            (relu): ReLU(inplace=True)
          )
          (linear1): Conv1d(704, 128, kernel_size=(1,), stride=(1,), bias=False)
          (nonlinear2): Sequential(
            (batchnorm): BatchNorm1d(128, eps=1e-05, momentum=0.1, affine=True, track_running_stats=True)
            (relu): ReLU(inplace=True)
          )
          (cam_layer): CAMLayer(
            (linear_local): Conv1d(128, 32, kernel_size=(3,), stride=(1,), padding=(2,), dilation=(2,), bias=False)
            (linear1): Conv1d(128, 64, kernel_size=(1,), stride=(1,))
            (relu): ReLU(inplace=True)
            (linear2): Conv1d(64, 32, kernel_size=(1,), stride=(1,))
            (sigmoid): Sigmoid()
          )
        )
        (15): CAMDenseTDNNLayer(
          (nonlinear1): Sequential(
            (batchnorm): BatchNorm1d(736, eps=1e-05, momentum=0.1, affine=True, track_running_stats=True)
            (relu): ReLU(inplace=True)
          )
          (linear1): Conv1d(736, 128, kernel_size=(1,), stride=(1,), bias=False)
          (nonlinear2): Sequential(
            (batchnorm): BatchNorm1d(128, eps=1e-05, momentum=0.1, affine=True, track_running_stats=True)
            (relu): ReLU(inplace=True)
          )
          (cam_layer): CAMLayer(
            (linear_local): Conv1d(128, 32, kernel_size=(3,), stride=(1,), padding=(2,), dilation=(2,), bias=False)
            (linear1): Conv1d(128, 64, kernel_size=(1,), stride=(1,))
            (relu): ReLU(inplace=True)
            (linear2): Conv1d(64, 32, kernel_size=(1,), stride=(1,))
            (sigmoid): Sigmoid()
          )
        )
        (16): CAMDenseTDNNLayer(
          (nonlinear1): Sequential(
            (batchnorm): BatchNorm1d(768, eps=1e-05, momentum=0.1, affine=True, track_running_stats=True)
            (relu): ReLU(inplace=True)
          )
          (linear1): Conv1d(768, 128, kernel_size=(1,), stride=(1,), bias=False)
          (nonlinear2): Sequential(
            (batchnorm): BatchNorm1d(128, eps=1e-05, momentum=0.1, affine=True, track_running_stats=True)
            (relu): ReLU(inplace=True)
          )
          (cam_layer): CAMLayer(
            (linear_local): Conv1d(128, 32, kernel_size=(3,), stride=(1,), padding=(2,), dilation=(2,), bias=False)
            (linear1): Conv1d(128, 64, kernel_size=(1,), stride=(1,))
            (relu): ReLU(inplace=True)
            (linear2): Conv1d(64, 32, kernel_size=(1,), stride=(1,))
            (sigmoid): Sigmoid()
          )
        )
        (17): CAMDenseTDNNLayer(
          (nonlinear1): Sequential(
            (batchnorm): BatchNorm1d(800, eps=1e-05, momentum=0.1, affine=True, track_running_stats=True)
            (relu): ReLU(inplace=True)
          )
          (linear1): Conv1d(800, 128, kernel_size=(1,), stride=(1,), bias=False)
          (nonlinear2): Sequential(
            (batchnorm): BatchNorm1d(128, eps=1e-05, momentum=0.1, affine=True, track_running_stats=True)
            (relu): ReLU(inplace=True)
          )
          (cam_layer): CAMLayer(
            (linear_local): Conv1d(128, 32, kernel_size=(3,), stride=(1,), padding=(2,), dilation=(2,), bias=False)
            (linear1): Conv1d(128, 64, kernel_size=(1,), stride=(1,))
            (relu): ReLU(inplace=True)
            (linear2): Conv1d(64, 32, kernel_size=(1,), stride=(1,))
            (sigmoid): Sigmoid()
          )
        )
        (18): CAMDenseTDNNLayer(
          (nonlinear1): Sequential(
            (batchnorm): BatchNorm1d(832, eps=1e-05, momentum=0.1, affine=True, track_running_stats=True)
            (relu): ReLU(inplace=True)
          )
          (linear1): Conv1d(832, 128, kernel_size=(1,), stride=(1,), bias=False)
          (nonlinear2): Sequential(
            (batchnorm): BatchNorm1d(128, eps=1e-05, momentum=0.1, affine=True, track_running_stats=True)
            (relu): ReLU(inplace=True)
          )
          (cam_layer): CAMLayer(
            (linear_local): Conv1d(128, 32, kernel_size=(3,), stride=(1,), padding=(2,), dilation=(2,), bias=False)
            (linear1): Conv1d(128, 64, kernel_size=(1,), stride=(1,))
            (relu): ReLU(inplace=True)
            (linear2): Conv1d(64, 32, kernel_size=(1,), stride=(1,))
            (sigmoid): Sigmoid()
          )
        )
        (19): CAMDenseTDNNLayer(
          (nonlinear1): Sequential(
            (batchnorm): BatchNorm1d(864, eps=1e-05, momentum=0.1, affine=True, track_running_stats=True)
            (relu): ReLU(inplace=True)
          )
          (linear1): Conv1d(864, 128, kernel_size=(1,), stride=(1,), bias=False)
          (nonlinear2): Sequential(
            (batchnorm): BatchNorm1d(128, eps=1e-05, momentum=0.1, affine=True, track_running_stats=True)
            (relu): ReLU(inplace=True)
          )
          (cam_layer): CAMLayer(
            (linear_local): Conv1d(128, 32, kernel_size=(3,), stride=(1,), padding=(2,), dilation=(2,), bias=False)
            (linear1): Conv1d(128, 64, kernel_size=(1,), stride=(1,))
            (relu): ReLU(inplace=True)
            (linear2): Conv1d(64, 32, kernel_size=(1,), stride=(1,))
            (sigmoid): Sigmoid()
          )
        )
        (20): CAMDenseTDNNLayer(
          (nonlinear1): Sequential(
            (batchnorm): BatchNorm1d(896, eps=1e-05, momentum=0.1, affine=True, track_running_stats=True)
            (relu): ReLU(inplace=True)
          )
          (linear1): Conv1d(896, 128, kernel_size=(1,), stride=(1,), bias=False)
          (nonlinear2): Sequential(
            (batchnorm): BatchNorm1d(128, eps=1e-05, momentum=0.1, affine=True, track_running_stats=True)
            (relu): ReLU(inplace=True)
          )
          (cam_layer): CAMLayer(
            (linear_local): Conv1d(128, 32, kernel_size=(3,), stride=(1,), padding=(2,), dilation=(2,), bias=False)
            (linear1): Conv1d(128, 64, kernel_size=(1,), stride=(1,))
            (relu): ReLU(inplace=True)
            (linear2): Conv1d(64, 32, kernel_size=(1,), stride=(1,))
            (sigmoid): Sigmoid()
          )
        )
        (21): CAMDenseTDNNLayer(
          (nonlinear1): Sequential(
            (batchnorm): BatchNorm1d(928, eps=1e-05, momentum=0.1, affine=True, track_running_stats=True)
            (relu): ReLU(inplace=True)
          )
          (linear1): Conv1d(928, 128, kernel_size=(1,), stride=(1,), bias=False)
          (nonlinear2): Sequential(
            (batchnorm): BatchNorm1d(128, eps=1e-05, momentum=0.1, affine=True, track_running_stats=True)
            (relu): ReLU(inplace=True)
          )
          (cam_layer): CAMLayer(
            (linear_local): Conv1d(128, 32, kernel_size=(3,), stride=(1,), padding=(2,), dilation=(2,), bias=False)
            (linear1): Conv1d(128, 64, kernel_size=(1,), stride=(1,))
            (relu): ReLU(inplace=True)
            (linear2): Conv1d(64, 32, kernel_size=(1,), stride=(1,))
            (sigmoid): Sigmoid()
          )
        )
        (22): CAMDenseTDNNLayer(
          (nonlinear1): Sequential(
            (batchnorm): BatchNorm1d(960, eps=1e-05, momentum=0.1, affine=True, track_running_stats=True)
            (relu): ReLU(inplace=True)
          )
          (linear1): Conv1d(960, 128, kernel_size=(1,), stride=(1,), bias=False)
          (nonlinear2): Sequential(
            (batchnorm): BatchNorm1d(128, eps=1e-05, momentum=0.1, affine=True, track_running_stats=True)
            (relu): ReLU(inplace=True)
          )
          (cam_layer): CAMLayer(
            (linear_local): Conv1d(128, 32, kernel_size=(3,), stride=(1,), padding=(2,), dilation=(2,), bias=False)
            (linear1): Conv1d(128, 64, kernel_size=(1,), stride=(1,))
            (relu): ReLU(inplace=True)
            (linear2): Conv1d(64, 32, kernel_size=(1,), stride=(1,))
            (sigmoid): Sigmoid()
          )
        )
        (23): CAMDenseTDNNLayer(
          (nonlinear1): Sequential(
            (batchnorm): BatchNorm1d(992, eps=1e-05, momentum=0.1, affine=True, track_running_stats=True)
            (relu): ReLU(inplace=True)
          )
          (linear1): Conv1d(992, 128, kernel_size=(1,), stride=(1,), bias=False)
          (nonlinear2): Sequential(
            (batchnorm): BatchNorm1d(128, eps=1e-05, momentum=0.1, affine=True, track_running_stats=True)
            (relu): ReLU(inplace=True)
          )
          (cam_layer): CAMLayer(
            (linear_local): Conv1d(128, 32, kernel_size=(3,), stride=(1,), padding=(2,), dilation=(2,), bias=False)
            (linear1): Conv1d(128, 64, kernel_size=(1,), stride=(1,))
            (relu): ReLU(inplace=True)
            (linear2): Conv1d(64, 32, kernel_size=(1,), stride=(1,))
            (sigmoid): Sigmoid()
          )
        )
      )
      (transit2): TransitLayer(
        (nonlinear): Sequential(
          (batchnorm): BatchNorm1d(1024, eps=1e-05, momentum=0.1, affine=True, track_running_stats=True)
          (relu): ReLU(inplace=True)
        )
        (linear): Conv1d(1024, 512, kernel_size=(1,), stride=(1,), bias=False)
      )
      (block3): CAMDenseTDNNBlock(
        (0): CAMDenseTDNNLayer(
          (nonlinear1): Sequential(
            (batchnorm): BatchNorm1d(512, eps=1e-05, momentum=0.1, affine=True, track_running_stats=True)
            (relu): ReLU(inplace=True)
          )
          (linear1): Conv1d(512, 128, kernel_size=(1,), stride=(1,), bias=False)
          (nonlinear2): Sequential(
            (batchnorm): BatchNorm1d(128, eps=1e-05, momentum=0.1, affine=True, track_running_stats=True)
            (relu): ReLU(inplace=True)
          )
          (cam_layer): CAMLayer(
            (linear_local): Conv1d(128, 32, kernel_size=(3,), stride=(1,), padding=(2,), dilation=(2,), bias=False)
            (linear1): Conv1d(128, 64, kernel_size=(1,), stride=(1,))
            (relu): ReLU(inplace=True)
            (linear2): Conv1d(64, 32, kernel_size=(1,), stride=(1,))
            (sigmoid): Sigmoid()
          )
        )
        (1): CAMDenseTDNNLayer(
          (nonlinear1): Sequential(
            (batchnorm): BatchNorm1d(544, eps=1e-05, momentum=0.1, affine=True, track_running_stats=True)
            (relu): ReLU(inplace=True)
          )
          (linear1): Conv1d(544, 128, kernel_size=(1,), stride=(1,), bias=False)
          (nonlinear2): Sequential(
            (batchnorm): BatchNorm1d(128, eps=1e-05, momentum=0.1, affine=True, track_running_stats=True)
            (relu): ReLU(inplace=True)
          )
          (cam_layer): CAMLayer(
            (linear_local): Conv1d(128, 32, kernel_size=(3,), stride=(1,), padding=(2,), dilation=(2,), bias=False)
            (linear1): Conv1d(128, 64, kernel_size=(1,), stride=(1,))
            (relu): ReLU(inplace=True)
            (linear2): Conv1d(64, 32, kernel_size=(1,), stride=(1,))
            (sigmoid): Sigmoid()
          )
        )
        (2): CAMDenseTDNNLayer(
          (nonlinear1): Sequential(
            (batchnorm): BatchNorm1d(576, eps=1e-05, momentum=0.1, affine=True, track_running_stats=True)
            (relu): ReLU(inplace=True)
          )
          (linear1): Conv1d(576, 128, kernel_size=(1,), stride=(1,), bias=False)
          (nonlinear2): Sequential(
            (batchnorm): BatchNorm1d(128, eps=1e-05, momentum=0.1, affine=True, track_running_stats=True)
            (relu): ReLU(inplace=True)
          )
          (cam_layer): CAMLayer(
            (linear_local): Conv1d(128, 32, kernel_size=(3,), stride=(1,), padding=(2,), dilation=(2,), bias=False)
            (linear1): Conv1d(128, 64, kernel_size=(1,), stride=(1,))
            (relu): ReLU(inplace=True)
            (linear2): Conv1d(64, 32, kernel_size=(1,), stride=(1,))
            (sigmoid): Sigmoid()
          )
        )
        (3): CAMDenseTDNNLayer(
          (nonlinear1): Sequential(
            (batchnorm): BatchNorm1d(608, eps=1e-05, momentum=0.1, affine=True, track_running_stats=True)
            (relu): ReLU(inplace=True)
          )
          (linear1): Conv1d(608, 128, kernel_size=(1,), stride=(1,), bias=False)
          (nonlinear2): Sequential(
            (batchnorm): BatchNorm1d(128, eps=1e-05, momentum=0.1, affine=True, track_running_stats=True)
            (relu): ReLU(inplace=True)
          )
          (cam_layer): CAMLayer(
            (linear_local): Conv1d(128, 32, kernel_size=(3,), stride=(1,), padding=(2,), dilation=(2,), bias=False)
            (linear1): Conv1d(128, 64, kernel_size=(1,), stride=(1,))
            (relu): ReLU(inplace=True)
            (linear2): Conv1d(64, 32, kernel_size=(1,), stride=(1,))
            (sigmoid): Sigmoid()
          )
        )
        (4): CAMDenseTDNNLayer(
          (nonlinear1): Sequential(
            (batchnorm): BatchNorm1d(640, eps=1e-05, momentum=0.1, affine=True, track_running_stats=True)
            (relu): ReLU(inplace=True)
          )
          (linear1): Conv1d(640, 128, kernel_size=(1,), stride=(1,), bias=False)
          (nonlinear2): Sequential(
            (batchnorm): BatchNorm1d(128, eps=1e-05, momentum=0.1, affine=True, track_running_stats=True)
            (relu): ReLU(inplace=True)
          )
          (cam_layer): CAMLayer(
            (linear_local): Conv1d(128, 32, kernel_size=(3,), stride=(1,), padding=(2,), dilation=(2,), bias=False)
            (linear1): Conv1d(128, 64, kernel_size=(1,), stride=(1,))
            (relu): ReLU(inplace=True)
            (linear2): Conv1d(64, 32, kernel_size=(1,), stride=(1,))
            (sigmoid): Sigmoid()
          )
        )
        (5): CAMDenseTDNNLayer(
          (nonlinear1): Sequential(
            (batchnorm): BatchNorm1d(672, eps=1e-05, momentum=0.1, affine=True, track_running_stats=True)
            (relu): ReLU(inplace=True)
          )
          (linear1): Conv1d(672, 128, kernel_size=(1,), stride=(1,), bias=False)
          (nonlinear2): Sequential(
            (batchnorm): BatchNorm1d(128, eps=1e-05, momentum=0.1, affine=True, track_running_stats=True)
            (relu): ReLU(inplace=True)
          )
          (cam_layer): CAMLayer(
            (linear_local): Conv1d(128, 32, kernel_size=(3,), stride=(1,), padding=(2,), dilation=(2,), bias=False)
            (linear1): Conv1d(128, 64, kernel_size=(1,), stride=(1,))
            (relu): ReLU(inplace=True)
            (linear2): Conv1d(64, 32, kernel_size=(1,), stride=(1,))
            (sigmoid): Sigmoid()
          )
        )
        (6): CAMDenseTDNNLayer(
          (nonlinear1): Sequential(
            (batchnorm): BatchNorm1d(704, eps=1e-05, momentum=0.1, affine=True, track_running_stats=True)
            (relu): ReLU(inplace=True)
          )
          (linear1): Conv1d(704, 128, kernel_size=(1,), stride=(1,), bias=False)
          (nonlinear2): Sequential(
            (batchnorm): BatchNorm1d(128, eps=1e-05, momentum=0.1, affine=True, track_running_stats=True)
            (relu): ReLU(inplace=True)
          )
          (cam_layer): CAMLayer(
            (linear_local): Conv1d(128, 32, kernel_size=(3,), stride=(1,), padding=(2,), dilation=(2,), bias=False)
            (linear1): Conv1d(128, 64, kernel_size=(1,), stride=(1,))
            (relu): ReLU(inplace=True)
            (linear2): Conv1d(64, 32, kernel_size=(1,), stride=(1,))
            (sigmoid): Sigmoid()
          )
        )
        (7): CAMDenseTDNNLayer(
          (nonlinear1): Sequential(
            (batchnorm): BatchNorm1d(736, eps=1e-05, momentum=0.1, affine=True, track_running_stats=True)
            (relu): ReLU(inplace=True)
          )
          (linear1): Conv1d(736, 128, kernel_size=(1,), stride=(1,), bias=False)
          (nonlinear2): Sequential(
            (batchnorm): BatchNorm1d(128, eps=1e-05, momentum=0.1, affine=True, track_running_stats=True)
            (relu): ReLU(inplace=True)
          )
          (cam_layer): CAMLayer(
            (linear_local): Conv1d(128, 32, kernel_size=(3,), stride=(1,), padding=(2,), dilation=(2,), bias=False)
            (linear1): Conv1d(128, 64, kernel_size=(1,), stride=(1,))
            (relu): ReLU(inplace=True)
            (linear2): Conv1d(64, 32, kernel_size=(1,), stride=(1,))
            (sigmoid): Sigmoid()
          )
        )
        (8): CAMDenseTDNNLayer(
          (nonlinear1): Sequential(
            (batchnorm): BatchNorm1d(768, eps=1e-05, momentum=0.1, affine=True, track_running_stats=True)
            (relu): ReLU(inplace=True)
          )
          (linear1): Conv1d(768, 128, kernel_size=(1,), stride=(1,), bias=False)
          (nonlinear2): Sequential(
            (batchnorm): BatchNorm1d(128, eps=1e-05, momentum=0.1, affine=True, track_running_stats=True)
            (relu): ReLU(inplace=True)
          )
          (cam_layer): CAMLayer(
            (linear_local): Conv1d(128, 32, kernel_size=(3,), stride=(1,), padding=(2,), dilation=(2,), bias=False)
            (linear1): Conv1d(128, 64, kernel_size=(1,), stride=(1,))
            (relu): ReLU(inplace=True)
            (linear2): Conv1d(64, 32, kernel_size=(1,), stride=(1,))
            (sigmoid): Sigmoid()
          )
        )
        (9): CAMDenseTDNNLayer(
          (nonlinear1): Sequential(
            (batchnorm): BatchNorm1d(800, eps=1e-05, momentum=0.1, affine=True, track_running_stats=True)
            (relu): ReLU(inplace=True)
          )
          (linear1): Conv1d(800, 128, kernel_size=(1,), stride=(1,), bias=False)
          (nonlinear2): Sequential(
            (batchnorm): BatchNorm1d(128, eps=1e-05, momentum=0.1, affine=True, track_running_stats=True)
            (relu): ReLU(inplace=True)
          )
          (cam_layer): CAMLayer(
            (linear_local): Conv1d(128, 32, kernel_size=(3,), stride=(1,), padding=(2,), dilation=(2,), bias=False)
            (linear1): Conv1d(128, 64, kernel_size=(1,), stride=(1,))
            (relu): ReLU(inplace=True)
            (linear2): Conv1d(64, 32, kernel_size=(1,), stride=(1,))
            (sigmoid): Sigmoid()
          )
        )
        (10): CAMDenseTDNNLayer(
          (nonlinear1): Sequential(
            (batchnorm): BatchNorm1d(832, eps=1e-05, momentum=0.1, affine=True, track_running_stats=True)
            (relu): ReLU(inplace=True)
          )
          (linear1): Conv1d(832, 128, kernel_size=(1,), stride=(1,), bias=False)
          (nonlinear2): Sequential(
            (batchnorm): BatchNorm1d(128, eps=1e-05, momentum=0.1, affine=True, track_running_stats=True)
            (relu): ReLU(inplace=True)
          )
          (cam_layer): CAMLayer(
            (linear_local): Conv1d(128, 32, kernel_size=(3,), stride=(1,), padding=(2,), dilation=(2,), bias=False)
            (linear1): Conv1d(128, 64, kernel_size=(1,), stride=(1,))
            (relu): ReLU(inplace=True)
            (linear2): Conv1d(64, 32, kernel_size=(1,), stride=(1,))
            (sigmoid): Sigmoid()
          )
        )
        (11): CAMDenseTDNNLayer(
          (nonlinear1): Sequential(
            (batchnorm): BatchNorm1d(864, eps=1e-05, momentum=0.1, affine=True, track_running_stats=True)
            (relu): ReLU(inplace=True)
          )
          (linear1): Conv1d(864, 128, kernel_size=(1,), stride=(1,), bias=False)
          (nonlinear2): Sequential(
            (batchnorm): BatchNorm1d(128, eps=1e-05, momentum=0.1, affine=True, track_running_stats=True)
            (relu): ReLU(inplace=True)
          )
          (cam_layer): CAMLayer(
            (linear_local): Conv1d(128, 32, kernel_size=(3,), stride=(1,), padding=(2,), dilation=(2,), bias=False)
            (linear1): Conv1d(128, 64, kernel_size=(1,), stride=(1,))
            (relu): ReLU(inplace=True)
            (linear2): Conv1d(64, 32, kernel_size=(1,), stride=(1,))
            (sigmoid): Sigmoid()
          )
        )
        (12): CAMDenseTDNNLayer(
          (nonlinear1): Sequential(
            (batchnorm): BatchNorm1d(896, eps=1e-05, momentum=0.1, affine=True, track_running_stats=True)
            (relu): ReLU(inplace=True)
          )
          (linear1): Conv1d(896, 128, kernel_size=(1,), stride=(1,), bias=False)
          (nonlinear2): Sequential(
            (batchnorm): BatchNorm1d(128, eps=1e-05, momentum=0.1, affine=True, track_running_stats=True)
            (relu): ReLU(inplace=True)
          )
          (cam_layer): CAMLayer(
            (linear_local): Conv1d(128, 32, kernel_size=(3,), stride=(1,), padding=(2,), dilation=(2,), bias=False)
            (linear1): Conv1d(128, 64, kernel_size=(1,), stride=(1,))
            (relu): ReLU(inplace=True)
            (linear2): Conv1d(64, 32, kernel_size=(1,), stride=(1,))
            (sigmoid): Sigmoid()
          )
        )
        (13): CAMDenseTDNNLayer(
          (nonlinear1): Sequential(
            (batchnorm): BatchNorm1d(928, eps=1e-05, momentum=0.1, affine=True, track_running_stats=True)
            (relu): ReLU(inplace=True)
          )
          (linear1): Conv1d(928, 128, kernel_size=(1,), stride=(1,), bias=False)
          (nonlinear2): Sequential(
            (batchnorm): BatchNorm1d(128, eps=1e-05, momentum=0.1, affine=True, track_running_stats=True)
            (relu): ReLU(inplace=True)
          )
          (cam_layer): CAMLayer(
            (linear_local): Conv1d(128, 32, kernel_size=(3,), stride=(1,), padding=(2,), dilation=(2,), bias=False)
            (linear1): Conv1d(128, 64, kernel_size=(1,), stride=(1,))
            (relu): ReLU(inplace=True)
            (linear2): Conv1d(64, 32, kernel_size=(1,), stride=(1,))
            (sigmoid): Sigmoid()
          )
        )
        (14): CAMDenseTDNNLayer(
          (nonlinear1): Sequential(
            (batchnorm): BatchNorm1d(960, eps=1e-05, momentum=0.1, affine=True, track_running_stats=True)
            (relu): ReLU(inplace=True)
          )
          (linear1): Conv1d(960, 128, kernel_size=(1,), stride=(1,), bias=False)
          (nonlinear2): Sequential(
            (batchnorm): BatchNorm1d(128, eps=1e-05, momentum=0.1, affine=True, track_running_stats=True)
            (relu): ReLU(inplace=True)
          )
          (cam_layer): CAMLayer(
            (linear_local): Conv1d(128, 32, kernel_size=(3,), stride=(1,), padding=(2,), dilation=(2,), bias=False)
            (linear1): Conv1d(128, 64, kernel_size=(1,), stride=(1,))
            (relu): ReLU(inplace=True)
            (linear2): Conv1d(64, 32, kernel_size=(1,), stride=(1,))
            (sigmoid): Sigmoid()
          )
        )
        (15): CAMDenseTDNNLayer(
          (nonlinear1): Sequential(
            (batchnorm): BatchNorm1d(992, eps=1e-05, momentum=0.1, affine=True, track_running_stats=True)
            (relu): ReLU(inplace=True)
          )
          (linear1): Conv1d(992, 128, kernel_size=(1,), stride=(1,), bias=False)
          (nonlinear2): Sequential(
            (batchnorm): BatchNorm1d(128, eps=1e-05, momentum=0.1, affine=True, track_running_stats=True)
            (relu): ReLU(inplace=True)
          )
          (cam_layer): CAMLayer(
            (linear_local): Conv1d(128, 32, kernel_size=(3,), stride=(1,), padding=(2,), dilation=(2,), bias=False)
            (linear1): Conv1d(128, 64, kernel_size=(1,), stride=(1,))
            (relu): ReLU(inplace=True)
            (linear2): Conv1d(64, 32, kernel_size=(1,), stride=(1,))
            (sigmoid): Sigmoid()
          )
        )
      )
      (transit3): TransitLayer(
        (nonlinear): Sequential(
          (batchnorm): BatchNorm1d(1024, eps=1e-05, momentum=0.1, affine=True, track_running_stats=True)
          (relu): ReLU(inplace=True)
        )
        (linear): Conv1d(1024, 512, kernel_size=(1,), stride=(1,), bias=False)
      )
      (out_nonlinear): Sequential(
        (batchnorm): BatchNorm1d(512, eps=1e-05, momentum=0.1, affine=True, track_running_stats=True)
        (relu): ReLU(inplace=True)
      )
      (stats): StatsPool()
      (dense): DenseLayer(
        (linear): Conv1d(1024, 192, kernel_size=(1,), stride=(1,), bias=False)
        (nonlinear): Sequential(
          (batchnorm): BatchNorm1d(192, eps=1e-05, momentum=0.1, affine=False, track_running_stats=True)
        )
      )
    )
  )
  (speech_down_or_up): Sequential(
    (0): Conv1d(512, 192, kernel_size=(5,), stride=(2,), padding=(2,))
    (1): BatchNorm1D(
      (bn): BatchNorm1d(192, eps=1e-05, momentum=0.1, affine=True, track_running_stats=True)
    )
    (2): ReLU()
  )
  (single_backend): TransformerEncoder(
    (layers): ModuleList(
      (0-1): 2 x TransformerEncoderLayer(
        (self_attn): MultiheadAttention(
          (out_proj): NonDynamicallyQuantizableLinear(in_features=384, out_features=384, bias=True)
        )
        (linear1): Linear(in_features=384, out_features=1536, bias=True)
        (dropout): Dropout(p=0.1, inplace=False)
        (linear2): Linear(in_features=1536, out_features=384, bias=True)
        (norm1): LayerNorm((384,), eps=1e-05, elementwise_affine=True)
        (norm2): LayerNorm((384,), eps=1e-05, elementwise_affine=True)
        (dropout1): Dropout(p=0.1, inplace=False)
        (dropout2): Dropout(p=0.1, inplace=False)
      )
    )
  )
  (pos_encoder): PositionalEncoding(
    (dropout): Dropout(p=0.1, inplace=False)
  )
  (backend_down): Sequential(
    (0): Conv1d(1536, 384, kernel_size=(5,), stride=(1,), padding=(2,))
    (1): BatchNorm1D(
      (bn): BatchNorm1d(384, eps=1e-05, momentum=0.1, affine=True, track_running_stats=True)
    )
    (2): ReLU()
  )
  (multi_backend): TransformerEncoder(
    (layers): ModuleList(
      (0-1): 2 x TransformerEncoderLayer(
        (self_attn): MultiheadAttention(
          (out_proj): NonDynamicallyQuantizableLinear(in_features=384, out_features=384, bias=True)
        )
        (linear1): Linear(in_features=384, out_features=1536, bias=True)
        (dropout): Dropout(p=0.1, inplace=False)
        (linear2): Linear(in_features=1536, out_features=384, bias=True)
        (norm1): LayerNorm((384,), eps=1e-05, elementwise_affine=True)
        (norm2): LayerNorm((384,), eps=1e-05, elementwise_affine=True)
        (dropout1): Dropout(p=0.1, inplace=False)
        (dropout2): Dropout(p=0.1, inplace=False)
      )
    )
  )
  (fc): Linear(in_features=384, out_features=4, bias=True)
)
2024-12-18 16:01:39,805 (train_accelerate_ddp:934) INFO: Number of model parameters: 17390308
2024-12-18 16:01:39,818 (train_accelerate_ddp:932) INFO: model: TSVADModel(
  (rs_dropout): Dropout(p=0.1, inplace=False)
  (speech_encoder): CAMPPlus(
    (head): FCM(
      (conv1): Conv2d(1, 32, kernel_size=(3, 3), stride=(1, 1), padding=(1, 1), bias=False)
      (bn1): BatchNorm2d(32, eps=1e-05, momentum=0.1, affine=True, track_running_stats=True)
      (layer1): Sequential(
        (0): BasicResBlock(
          (conv1): Conv2d(32, 32, kernel_size=(3, 3), stride=(2, 1), padding=(1, 1), bias=False)
          (bn1): BatchNorm2d(32, eps=1e-05, momentum=0.1, affine=True, track_running_stats=True)
          (conv2): Conv2d(32, 32, kernel_size=(3, 3), stride=(1, 1), padding=(1, 1), bias=False)
          (bn2): BatchNorm2d(32, eps=1e-05, momentum=0.1, affine=True, track_running_stats=True)
          (shortcut): Sequential(
            (0): Conv2d(32, 32, kernel_size=(1, 1), stride=(2, 1), bias=False)
            (1): BatchNorm2d(32, eps=1e-05, momentum=0.1, affine=True, track_running_stats=True)
          )
        )
        (1): BasicResBlock(
          (conv1): Conv2d(32, 32, kernel_size=(3, 3), stride=(1, 1), padding=(1, 1), bias=False)
          (bn1): BatchNorm2d(32, eps=1e-05, momentum=0.1, affine=True, track_running_stats=True)
          (conv2): Conv2d(32, 32, kernel_size=(3, 3), stride=(1, 1), padding=(1, 1), bias=False)
          (bn2): BatchNorm2d(32, eps=1e-05, momentum=0.1, affine=True, track_running_stats=True)
          (shortcut): Sequential()
        )
      )
      (layer2): Sequential(
        (0): BasicResBlock(
          (conv1): Conv2d(32, 32, kernel_size=(3, 3), stride=(2, 1), padding=(1, 1), bias=False)
          (bn1): BatchNorm2d(32, eps=1e-05, momentum=0.1, affine=True, track_running_stats=True)
          (conv2): Conv2d(32, 32, kernel_size=(3, 3), stride=(1, 1), padding=(1, 1), bias=False)
          (bn2): BatchNorm2d(32, eps=1e-05, momentum=0.1, affine=True, track_running_stats=True)
          (shortcut): Sequential(
            (0): Conv2d(32, 32, kernel_size=(1, 1), stride=(2, 1), bias=False)
            (1): BatchNorm2d(32, eps=1e-05, momentum=0.1, affine=True, track_running_stats=True)
          )
        )
        (1): BasicResBlock(
          (conv1): Conv2d(32, 32, kernel_size=(3, 3), stride=(1, 1), padding=(1, 1), bias=False)
          (bn1): BatchNorm2d(32, eps=1e-05, momentum=0.1, affine=True, track_running_stats=True)
          (conv2): Conv2d(32, 32, kernel_size=(3, 3), stride=(1, 1), padding=(1, 1), bias=False)
          (bn2): BatchNorm2d(32, eps=1e-05, momentum=0.1, affine=True, track_running_stats=True)
          (shortcut): Sequential()
        )
      )
      (conv2): Conv2d(32, 32, kernel_size=(3, 3), stride=(2, 1), padding=(1, 1), bias=False)
      (bn2): BatchNorm2d(32, eps=1e-05, momentum=0.1, affine=True, track_running_stats=True)
    )
    (xvector): Sequential(
      (tdnn): TDNNLayer(
        (linear): Conv1d(320, 128, kernel_size=(5,), stride=(2,), padding=(2,), bias=False)
        (nonlinear): Sequential(
          (batchnorm): BatchNorm1d(128, eps=1e-05, momentum=0.1, affine=True, track_running_stats=True)
          (relu): ReLU(inplace=True)
        )
      )
      (block1): CAMDenseTDNNBlock(
        (0): CAMDenseTDNNLayer(
          (nonlinear1): Sequential(
            (batchnorm): BatchNorm1d(128, eps=1e-05, momentum=0.1, affine=True, track_running_stats=True)
            (relu): ReLU(inplace=True)
          )
          (linear1): Conv1d(128, 128, kernel_size=(1,), stride=(1,), bias=False)
          (nonlinear2): Sequential(
            (batchnorm): BatchNorm1d(128, eps=1e-05, momentum=0.1, affine=True, track_running_stats=True)
            (relu): ReLU(inplace=True)
          )
          (cam_layer): CAMLayer(
            (linear_local): Conv1d(128, 32, kernel_size=(3,), stride=(1,), padding=(1,), bias=False)
            (linear1): Conv1d(128, 64, kernel_size=(1,), stride=(1,))
            (relu): ReLU(inplace=True)
            (linear2): Conv1d(64, 32, kernel_size=(1,), stride=(1,))
            (sigmoid): Sigmoid()
          )
        )
        (1): CAMDenseTDNNLayer(
          (nonlinear1): Sequential(
            (batchnorm): BatchNorm1d(160, eps=1e-05, momentum=0.1, affine=True, track_running_stats=True)
            (relu): ReLU(inplace=True)
          )
          (linear1): Conv1d(160, 128, kernel_size=(1,), stride=(1,), bias=False)
          (nonlinear2): Sequential(
            (batchnorm): BatchNorm1d(128, eps=1e-05, momentum=0.1, affine=True, track_running_stats=True)
            (relu): ReLU(inplace=True)
          )
          (cam_layer): CAMLayer(
            (linear_local): Conv1d(128, 32, kernel_size=(3,), stride=(1,), padding=(1,), bias=False)
            (linear1): Conv1d(128, 64, kernel_size=(1,), stride=(1,))
            (relu): ReLU(inplace=True)
            (linear2): Conv1d(64, 32, kernel_size=(1,), stride=(1,))
            (sigmoid): Sigmoid()
          )
        )
        (2): CAMDenseTDNNLayer(
          (nonlinear1): Sequential(
            (batchnorm): BatchNorm1d(192, eps=1e-05, momentum=0.1, affine=True, track_running_stats=True)
            (relu): ReLU(inplace=True)
          )
          (linear1): Conv1d(192, 128, kernel_size=(1,), stride=(1,), bias=False)
          (nonlinear2): Sequential(
            (batchnorm): BatchNorm1d(128, eps=1e-05, momentum=0.1, affine=True, track_running_stats=True)
            (relu): ReLU(inplace=True)
          )
          (cam_layer): CAMLayer(
            (linear_local): Conv1d(128, 32, kernel_size=(3,), stride=(1,), padding=(1,), bias=False)
            (linear1): Conv1d(128, 64, kernel_size=(1,), stride=(1,))
            (relu): ReLU(inplace=True)
            (linear2): Conv1d(64, 32, kernel_size=(1,), stride=(1,))
            (sigmoid): Sigmoid()
          )
        )
        (3): CAMDenseTDNNLayer(
          (nonlinear1): Sequential(
            (batchnorm): BatchNorm1d(224, eps=1e-05, momentum=0.1, affine=True, track_running_stats=True)
            (relu): ReLU(inplace=True)
          )
          (linear1): Conv1d(224, 128, kernel_size=(1,), stride=(1,), bias=False)
          (nonlinear2): Sequential(
            (batchnorm): BatchNorm1d(128, eps=1e-05, momentum=0.1, affine=True, track_running_stats=True)
            (relu): ReLU(inplace=True)
          )
          (cam_layer): CAMLayer(
            (linear_local): Conv1d(128, 32, kernel_size=(3,), stride=(1,), padding=(1,), bias=False)
            (linear1): Conv1d(128, 64, kernel_size=(1,), stride=(1,))
            (relu): ReLU(inplace=True)
            (linear2): Conv1d(64, 32, kernel_size=(1,), stride=(1,))
            (sigmoid): Sigmoid()
          )
        )
        (4): CAMDenseTDNNLayer(
          (nonlinear1): Sequential(
            (batchnorm): BatchNorm1d(256, eps=1e-05, momentum=0.1, affine=True, track_running_stats=True)
            (relu): ReLU(inplace=True)
          )
          (linear1): Conv1d(256, 128, kernel_size=(1,), stride=(1,), bias=False)
          (nonlinear2): Sequential(
            (batchnorm): BatchNorm1d(128, eps=1e-05, momentum=0.1, affine=True, track_running_stats=True)
            (relu): ReLU(inplace=True)
          )
          (cam_layer): CAMLayer(
            (linear_local): Conv1d(128, 32, kernel_size=(3,), stride=(1,), padding=(1,), bias=False)
            (linear1): Conv1d(128, 64, kernel_size=(1,), stride=(1,))
            (relu): ReLU(inplace=True)
            (linear2): Conv1d(64, 32, kernel_size=(1,), stride=(1,))
            (sigmoid): Sigmoid()
          )
        )
        (5): CAMDenseTDNNLayer(
          (nonlinear1): Sequential(
            (batchnorm): BatchNorm1d(288, eps=1e-05, momentum=0.1, affine=True, track_running_stats=True)
            (relu): ReLU(inplace=True)
          )
          (linear1): Conv1d(288, 128, kernel_size=(1,), stride=(1,), bias=False)
          (nonlinear2): Sequential(
            (batchnorm): BatchNorm1d(128, eps=1e-05, momentum=0.1, affine=True, track_running_stats=True)
            (relu): ReLU(inplace=True)
          )
          (cam_layer): CAMLayer(
            (linear_local): Conv1d(128, 32, kernel_size=(3,), stride=(1,), padding=(1,), bias=False)
            (linear1): Conv1d(128, 64, kernel_size=(1,), stride=(1,))
            (relu): ReLU(inplace=True)
            (linear2): Conv1d(64, 32, kernel_size=(1,), stride=(1,))
            (sigmoid): Sigmoid()
          )
        )
        (6): CAMDenseTDNNLayer(
          (nonlinear1): Sequential(
            (batchnorm): BatchNorm1d(320, eps=1e-05, momentum=0.1, affine=True, track_running_stats=True)
            (relu): ReLU(inplace=True)
          )
          (linear1): Conv1d(320, 128, kernel_size=(1,), stride=(1,), bias=False)
          (nonlinear2): Sequential(
            (batchnorm): BatchNorm1d(128, eps=1e-05, momentum=0.1, affine=True, track_running_stats=True)
            (relu): ReLU(inplace=True)
          )
          (cam_layer): CAMLayer(
            (linear_local): Conv1d(128, 32, kernel_size=(3,), stride=(1,), padding=(1,), bias=False)
            (linear1): Conv1d(128, 64, kernel_size=(1,), stride=(1,))
            (relu): ReLU(inplace=True)
            (linear2): Conv1d(64, 32, kernel_size=(1,), stride=(1,))
            (sigmoid): Sigmoid()
          )
        )
        (7): CAMDenseTDNNLayer(
          (nonlinear1): Sequential(
            (batchnorm): BatchNorm1d(352, eps=1e-05, momentum=0.1, affine=True, track_running_stats=True)
            (relu): ReLU(inplace=True)
          )
          (linear1): Conv1d(352, 128, kernel_size=(1,), stride=(1,), bias=False)
          (nonlinear2): Sequential(
            (batchnorm): BatchNorm1d(128, eps=1e-05, momentum=0.1, affine=True, track_running_stats=True)
            (relu): ReLU(inplace=True)
          )
          (cam_layer): CAMLayer(
            (linear_local): Conv1d(128, 32, kernel_size=(3,), stride=(1,), padding=(1,), bias=False)
            (linear1): Conv1d(128, 64, kernel_size=(1,), stride=(1,))
            (relu): ReLU(inplace=True)
            (linear2): Conv1d(64, 32, kernel_size=(1,), stride=(1,))
            (sigmoid): Sigmoid()
          )
        )
        (8): CAMDenseTDNNLayer(
          (nonlinear1): Sequential(
            (batchnorm): BatchNorm1d(384, eps=1e-05, momentum=0.1, affine=True, track_running_stats=True)
            (relu): ReLU(inplace=True)
          )
          (linear1): Conv1d(384, 128, kernel_size=(1,), stride=(1,), bias=False)
          (nonlinear2): Sequential(
            (batchnorm): BatchNorm1d(128, eps=1e-05, momentum=0.1, affine=True, track_running_stats=True)
            (relu): ReLU(inplace=True)
          )
          (cam_layer): CAMLayer(
            (linear_local): Conv1d(128, 32, kernel_size=(3,), stride=(1,), padding=(1,), bias=False)
            (linear1): Conv1d(128, 64, kernel_size=(1,), stride=(1,))
            (relu): ReLU(inplace=True)
            (linear2): Conv1d(64, 32, kernel_size=(1,), stride=(1,))
            (sigmoid): Sigmoid()
          )
        )
        (9): CAMDenseTDNNLayer(
          (nonlinear1): Sequential(
            (batchnorm): BatchNorm1d(416, eps=1e-05, momentum=0.1, affine=True, track_running_stats=True)
            (relu): ReLU(inplace=True)
          )
          (linear1): Conv1d(416, 128, kernel_size=(1,), stride=(1,), bias=False)
          (nonlinear2): Sequential(
            (batchnorm): BatchNorm1d(128, eps=1e-05, momentum=0.1, affine=True, track_running_stats=True)
            (relu): ReLU(inplace=True)
          )
          (cam_layer): CAMLayer(
            (linear_local): Conv1d(128, 32, kernel_size=(3,), stride=(1,), padding=(1,), bias=False)
            (linear1): Conv1d(128, 64, kernel_size=(1,), stride=(1,))
            (relu): ReLU(inplace=True)
            (linear2): Conv1d(64, 32, kernel_size=(1,), stride=(1,))
            (sigmoid): Sigmoid()
          )
        )
        (10): CAMDenseTDNNLayer(
          (nonlinear1): Sequential(
            (batchnorm): BatchNorm1d(448, eps=1e-05, momentum=0.1, affine=True, track_running_stats=True)
            (relu): ReLU(inplace=True)
          )
          (linear1): Conv1d(448, 128, kernel_size=(1,), stride=(1,), bias=False)
          (nonlinear2): Sequential(
            (batchnorm): BatchNorm1d(128, eps=1e-05, momentum=0.1, affine=True, track_running_stats=True)
            (relu): ReLU(inplace=True)
          )
          (cam_layer): CAMLayer(
            (linear_local): Conv1d(128, 32, kernel_size=(3,), stride=(1,), padding=(1,), bias=False)
            (linear1): Conv1d(128, 64, kernel_size=(1,), stride=(1,))
            (relu): ReLU(inplace=True)
            (linear2): Conv1d(64, 32, kernel_size=(1,), stride=(1,))
            (sigmoid): Sigmoid()
          )
        )
        (11): CAMDenseTDNNLayer(
          (nonlinear1): Sequential(
            (batchnorm): BatchNorm1d(480, eps=1e-05, momentum=0.1, affine=True, track_running_stats=True)
            (relu): ReLU(inplace=True)
          )
          (linear1): Conv1d(480, 128, kernel_size=(1,), stride=(1,), bias=False)
          (nonlinear2): Sequential(
            (batchnorm): BatchNorm1d(128, eps=1e-05, momentum=0.1, affine=True, track_running_stats=True)
            (relu): ReLU(inplace=True)
          )
          (cam_layer): CAMLayer(
            (linear_local): Conv1d(128, 32, kernel_size=(3,), stride=(1,), padding=(1,), bias=False)
            (linear1): Conv1d(128, 64, kernel_size=(1,), stride=(1,))
            (relu): ReLU(inplace=True)
            (linear2): Conv1d(64, 32, kernel_size=(1,), stride=(1,))
            (sigmoid): Sigmoid()
          )
        )
      )
      (transit1): TransitLayer(
        (nonlinear): Sequential(
          (batchnorm): BatchNorm1d(512, eps=1e-05, momentum=0.1, affine=True, track_running_stats=True)
          (relu): ReLU(inplace=True)
        )
        (linear): Conv1d(512, 256, kernel_size=(1,), stride=(1,), bias=False)
      )
      (block2): CAMDenseTDNNBlock(
        (0): CAMDenseTDNNLayer(
          (nonlinear1): Sequential(
            (batchnorm): BatchNorm1d(256, eps=1e-05, momentum=0.1, affine=True, track_running_stats=True)
            (relu): ReLU(inplace=True)
          )
          (linear1): Conv1d(256, 128, kernel_size=(1,), stride=(1,), bias=False)
          (nonlinear2): Sequential(
            (batchnorm): BatchNorm1d(128, eps=1e-05, momentum=0.1, affine=True, track_running_stats=True)
            (relu): ReLU(inplace=True)
          )
          (cam_layer): CAMLayer(
            (linear_local): Conv1d(128, 32, kernel_size=(3,), stride=(1,), padding=(2,), dilation=(2,), bias=False)
            (linear1): Conv1d(128, 64, kernel_size=(1,), stride=(1,))
            (relu): ReLU(inplace=True)
            (linear2): Conv1d(64, 32, kernel_size=(1,), stride=(1,))
            (sigmoid): Sigmoid()
          )
        )
        (1): CAMDenseTDNNLayer(
          (nonlinear1): Sequential(
            (batchnorm): BatchNorm1d(288, eps=1e-05, momentum=0.1, affine=True, track_running_stats=True)
            (relu): ReLU(inplace=True)
          )
          (linear1): Conv1d(288, 128, kernel_size=(1,), stride=(1,), bias=False)
          (nonlinear2): Sequential(
            (batchnorm): BatchNorm1d(128, eps=1e-05, momentum=0.1, affine=True, track_running_stats=True)
            (relu): ReLU(inplace=True)
          )
          (cam_layer): CAMLayer(
            (linear_local): Conv1d(128, 32, kernel_size=(3,), stride=(1,), padding=(2,), dilation=(2,), bias=False)
            (linear1): Conv1d(128, 64, kernel_size=(1,), stride=(1,))
            (relu): ReLU(inplace=True)
            (linear2): Conv1d(64, 32, kernel_size=(1,), stride=(1,))
            (sigmoid): Sigmoid()
          )
        )
        (2): CAMDenseTDNNLayer(
          (nonlinear1): Sequential(
            (batchnorm): BatchNorm1d(320, eps=1e-05, momentum=0.1, affine=True, track_running_stats=True)
            (relu): ReLU(inplace=True)
          )
          (linear1): Conv1d(320, 128, kernel_size=(1,), stride=(1,), bias=False)
          (nonlinear2): Sequential(
            (batchnorm): BatchNorm1d(128, eps=1e-05, momentum=0.1, affine=True, track_running_stats=True)
            (relu): ReLU(inplace=True)
          )
          (cam_layer): CAMLayer(
            (linear_local): Conv1d(128, 32, kernel_size=(3,), stride=(1,), padding=(2,), dilation=(2,), bias=False)
            (linear1): Conv1d(128, 64, kernel_size=(1,), stride=(1,))
            (relu): ReLU(inplace=True)
            (linear2): Conv1d(64, 32, kernel_size=(1,), stride=(1,))
            (sigmoid): Sigmoid()
          )
        )
        (3): CAMDenseTDNNLayer(
          (nonlinear1): Sequential(
            (batchnorm): BatchNorm1d(352, eps=1e-05, momentum=0.1, affine=True, track_running_stats=True)
            (relu): ReLU(inplace=True)
          )
          (linear1): Conv1d(352, 128, kernel_size=(1,), stride=(1,), bias=False)
          (nonlinear2): Sequential(
            (batchnorm): BatchNorm1d(128, eps=1e-05, momentum=0.1, affine=True, track_running_stats=True)
            (relu): ReLU(inplace=True)
          )
          (cam_layer): CAMLayer(
            (linear_local): Conv1d(128, 32, kernel_size=(3,), stride=(1,), padding=(2,), dilation=(2,), bias=False)
            (linear1): Conv1d(128, 64, kernel_size=(1,), stride=(1,))
            (relu): ReLU(inplace=True)
            (linear2): Conv1d(64, 32, kernel_size=(1,), stride=(1,))
            (sigmoid): Sigmoid()
          )
        )
        (4): CAMDenseTDNNLayer(
          (nonlinear1): Sequential(
            (batchnorm): BatchNorm1d(384, eps=1e-05, momentum=0.1, affine=True, track_running_stats=True)
            (relu): ReLU(inplace=True)
          )
          (linear1): Conv1d(384, 128, kernel_size=(1,), stride=(1,), bias=False)
          (nonlinear2): Sequential(
            (batchnorm): BatchNorm1d(128, eps=1e-05, momentum=0.1, affine=True, track_running_stats=True)
            (relu): ReLU(inplace=True)
          )
          (cam_layer): CAMLayer(
            (linear_local): Conv1d(128, 32, kernel_size=(3,), stride=(1,), padding=(2,), dilation=(2,), bias=False)
            (linear1): Conv1d(128, 64, kernel_size=(1,), stride=(1,))
            (relu): ReLU(inplace=True)
            (linear2): Conv1d(64, 32, kernel_size=(1,), stride=(1,))
            (sigmoid): Sigmoid()
          )
        )
        (5): CAMDenseTDNNLayer(
          (nonlinear1): Sequential(
            (batchnorm): BatchNorm1d(416, eps=1e-05, momentum=0.1, affine=True, track_running_stats=True)
            (relu): ReLU(inplace=True)
          )
          (linear1): Conv1d(416, 128, kernel_size=(1,), stride=(1,), bias=False)
          (nonlinear2): Sequential(
            (batchnorm): BatchNorm1d(128, eps=1e-05, momentum=0.1, affine=True, track_running_stats=True)
            (relu): ReLU(inplace=True)
          )
          (cam_layer): CAMLayer(
            (linear_local): Conv1d(128, 32, kernel_size=(3,), stride=(1,), padding=(2,), dilation=(2,), bias=False)
            (linear1): Conv1d(128, 64, kernel_size=(1,), stride=(1,))
            (relu): ReLU(inplace=True)
            (linear2): Conv1d(64, 32, kernel_size=(1,), stride=(1,))
            (sigmoid): Sigmoid()
          )
        )
        (6): CAMDenseTDNNLayer(
          (nonlinear1): Sequential(
            (batchnorm): BatchNorm1d(448, eps=1e-05, momentum=0.1, affine=True, track_running_stats=True)
            (relu): ReLU(inplace=True)
          )
          (linear1): Conv1d(448, 128, kernel_size=(1,), stride=(1,), bias=False)
          (nonlinear2): Sequential(
            (batchnorm): BatchNorm1d(128, eps=1e-05, momentum=0.1, affine=True, track_running_stats=True)
            (relu): ReLU(inplace=True)
          )
          (cam_layer): CAMLayer(
            (linear_local): Conv1d(128, 32, kernel_size=(3,), stride=(1,), padding=(2,), dilation=(2,), bias=False)
            (linear1): Conv1d(128, 64, kernel_size=(1,), stride=(1,))
            (relu): ReLU(inplace=True)
            (linear2): Conv1d(64, 32, kernel_size=(1,), stride=(1,))
            (sigmoid): Sigmoid()
          )
        )
        (7): CAMDenseTDNNLayer(
          (nonlinear1): Sequential(
            (batchnorm): BatchNorm1d(480, eps=1e-05, momentum=0.1, affine=True, track_running_stats=True)
            (relu): ReLU(inplace=True)
          )
          (linear1): Conv1d(480, 128, kernel_size=(1,), stride=(1,), bias=False)
          (nonlinear2): Sequential(
            (batchnorm): BatchNorm1d(128, eps=1e-05, momentum=0.1, affine=True, track_running_stats=True)
            (relu): ReLU(inplace=True)
          )
          (cam_layer): CAMLayer(
            (linear_local): Conv1d(128, 32, kernel_size=(3,), stride=(1,), padding=(2,), dilation=(2,), bias=False)
            (linear1): Conv1d(128, 64, kernel_size=(1,), stride=(1,))
            (relu): ReLU(inplace=True)
            (linear2): Conv1d(64, 32, kernel_size=(1,), stride=(1,))
            (sigmoid): Sigmoid()
          )
        )
        (8): CAMDenseTDNNLayer(
          (nonlinear1): Sequential(
            (batchnorm): BatchNorm1d(512, eps=1e-05, momentum=0.1, affine=True, track_running_stats=True)
            (relu): ReLU(inplace=True)
          )
          (linear1): Conv1d(512, 128, kernel_size=(1,), stride=(1,), bias=False)
          (nonlinear2): Sequential(
            (batchnorm): BatchNorm1d(128, eps=1e-05, momentum=0.1, affine=True, track_running_stats=True)
            (relu): ReLU(inplace=True)
          )
          (cam_layer): CAMLayer(
            (linear_local): Conv1d(128, 32, kernel_size=(3,), stride=(1,), padding=(2,), dilation=(2,), bias=False)
            (linear1): Conv1d(128, 64, kernel_size=(1,), stride=(1,))
            (relu): ReLU(inplace=True)
            (linear2): Conv1d(64, 32, kernel_size=(1,), stride=(1,))
            (sigmoid): Sigmoid()
          )
        )
        (9): CAMDenseTDNNLayer(
          (nonlinear1): Sequential(
            (batchnorm): BatchNorm1d(544, eps=1e-05, momentum=0.1, affine=True, track_running_stats=True)
            (relu): ReLU(inplace=True)
          )
          (linear1): Conv1d(544, 128, kernel_size=(1,), stride=(1,), bias=False)
          (nonlinear2): Sequential(
            (batchnorm): BatchNorm1d(128, eps=1e-05, momentum=0.1, affine=True, track_running_stats=True)
            (relu): ReLU(inplace=True)
          )
          (cam_layer): CAMLayer(
            (linear_local): Conv1d(128, 32, kernel_size=(3,), stride=(1,), padding=(2,), dilation=(2,), bias=False)
            (linear1): Conv1d(128, 64, kernel_size=(1,), stride=(1,))
            (relu): ReLU(inplace=True)
            (linear2): Conv1d(64, 32, kernel_size=(1,), stride=(1,))
            (sigmoid): Sigmoid()
          )
        )
        (10): CAMDenseTDNNLayer(
          (nonlinear1): Sequential(
            (batchnorm): BatchNorm1d(576, eps=1e-05, momentum=0.1, affine=True, track_running_stats=True)
            (relu): ReLU(inplace=True)
          )
          (linear1): Conv1d(576, 128, kernel_size=(1,), stride=(1,), bias=False)
          (nonlinear2): Sequential(
            (batchnorm): BatchNorm1d(128, eps=1e-05, momentum=0.1, affine=True, track_running_stats=True)
            (relu): ReLU(inplace=True)
          )
          (cam_layer): CAMLayer(
            (linear_local): Conv1d(128, 32, kernel_size=(3,), stride=(1,), padding=(2,), dilation=(2,), bias=False)
            (linear1): Conv1d(128, 64, kernel_size=(1,), stride=(1,))
            (relu): ReLU(inplace=True)
            (linear2): Conv1d(64, 32, kernel_size=(1,), stride=(1,))
            (sigmoid): Sigmoid()
          )
        )
        (11): CAMDenseTDNNLayer(
          (nonlinear1): Sequential(
            (batchnorm): BatchNorm1d(608, eps=1e-05, momentum=0.1, affine=True, track_running_stats=True)
            (relu): ReLU(inplace=True)
          )
          (linear1): Conv1d(608, 128, kernel_size=(1,), stride=(1,), bias=False)
          (nonlinear2): Sequential(
            (batchnorm): BatchNorm1d(128, eps=1e-05, momentum=0.1, affine=True, track_running_stats=True)
            (relu): ReLU(inplace=True)
          )
          (cam_layer): CAMLayer(
            (linear_local): Conv1d(128, 32, kernel_size=(3,), stride=(1,), padding=(2,), dilation=(2,), bias=False)
            (linear1): Conv1d(128, 64, kernel_size=(1,), stride=(1,))
            (relu): ReLU(inplace=True)
            (linear2): Conv1d(64, 32, kernel_size=(1,), stride=(1,))
            (sigmoid): Sigmoid()
          )
        )
        (12): CAMDenseTDNNLayer(
          (nonlinear1): Sequential(
            (batchnorm): BatchNorm1d(640, eps=1e-05, momentum=0.1, affine=True, track_running_stats=True)
            (relu): ReLU(inplace=True)
          )
          (linear1): Conv1d(640, 128, kernel_size=(1,), stride=(1,), bias=False)
          (nonlinear2): Sequential(
            (batchnorm): BatchNorm1d(128, eps=1e-05, momentum=0.1, affine=True, track_running_stats=True)
            (relu): ReLU(inplace=True)
          )
          (cam_layer): CAMLayer(
            (linear_local): Conv1d(128, 32, kernel_size=(3,), stride=(1,), padding=(2,), dilation=(2,), bias=False)
            (linear1): Conv1d(128, 64, kernel_size=(1,), stride=(1,))
            (relu): ReLU(inplace=True)
            (linear2): Conv1d(64, 32, kernel_size=(1,), stride=(1,))
            (sigmoid): Sigmoid()
          )
        )
        (13): CAMDenseTDNNLayer(
          (nonlinear1): Sequential(
            (batchnorm): BatchNorm1d(672, eps=1e-05, momentum=0.1, affine=True, track_running_stats=True)
            (relu): ReLU(inplace=True)
          )
          (linear1): Conv1d(672, 128, kernel_size=(1,), stride=(1,), bias=False)
          (nonlinear2): Sequential(
            (batchnorm): BatchNorm1d(128, eps=1e-05, momentum=0.1, affine=True, track_running_stats=True)
            (relu): ReLU(inplace=True)
          )
          (cam_layer): CAMLayer(
            (linear_local): Conv1d(128, 32, kernel_size=(3,), stride=(1,), padding=(2,), dilation=(2,), bias=False)
            (linear1): Conv1d(128, 64, kernel_size=(1,), stride=(1,))
            (relu): ReLU(inplace=True)
            (linear2): Conv1d(64, 32, kernel_size=(1,), stride=(1,))
            (sigmoid): Sigmoid()
          )
        )
        (14): CAMDenseTDNNLayer(
          (nonlinear1): Sequential(
            (batchnorm): BatchNorm1d(704, eps=1e-05, momentum=0.1, affine=True, track_running_stats=True)
            (relu): ReLU(inplace=True)
          )
          (linear1): Conv1d(704, 128, kernel_size=(1,), stride=(1,), bias=False)
          (nonlinear2): Sequential(
            (batchnorm): BatchNorm1d(128, eps=1e-05, momentum=0.1, affine=True, track_running_stats=True)
            (relu): ReLU(inplace=True)
          )
          (cam_layer): CAMLayer(
            (linear_local): Conv1d(128, 32, kernel_size=(3,), stride=(1,), padding=(2,), dilation=(2,), bias=False)
            (linear1): Conv1d(128, 64, kernel_size=(1,), stride=(1,))
            (relu): ReLU(inplace=True)
            (linear2): Conv1d(64, 32, kernel_size=(1,), stride=(1,))
            (sigmoid): Sigmoid()
          )
        )
        (15): CAMDenseTDNNLayer(
          (nonlinear1): Sequential(
            (batchnorm): BatchNorm1d(736, eps=1e-05, momentum=0.1, affine=True, track_running_stats=True)
            (relu): ReLU(inplace=True)
          )
          (linear1): Conv1d(736, 128, kernel_size=(1,), stride=(1,), bias=False)
          (nonlinear2): Sequential(
            (batchnorm): BatchNorm1d(128, eps=1e-05, momentum=0.1, affine=True, track_running_stats=True)
            (relu): ReLU(inplace=True)
          )
          (cam_layer): CAMLayer(
            (linear_local): Conv1d(128, 32, kernel_size=(3,), stride=(1,), padding=(2,), dilation=(2,), bias=False)
            (linear1): Conv1d(128, 64, kernel_size=(1,), stride=(1,))
            (relu): ReLU(inplace=True)
            (linear2): Conv1d(64, 32, kernel_size=(1,), stride=(1,))
            (sigmoid): Sigmoid()
          )
        )
        (16): CAMDenseTDNNLayer(
          (nonlinear1): Sequential(
            (batchnorm): BatchNorm1d(768, eps=1e-05, momentum=0.1, affine=True, track_running_stats=True)
            (relu): ReLU(inplace=True)
          )
          (linear1): Conv1d(768, 128, kernel_size=(1,), stride=(1,), bias=False)
          (nonlinear2): Sequential(
            (batchnorm): BatchNorm1d(128, eps=1e-05, momentum=0.1, affine=True, track_running_stats=True)
            (relu): ReLU(inplace=True)
          )
          (cam_layer): CAMLayer(
            (linear_local): Conv1d(128, 32, kernel_size=(3,), stride=(1,), padding=(2,), dilation=(2,), bias=False)
            (linear1): Conv1d(128, 64, kernel_size=(1,), stride=(1,))
            (relu): ReLU(inplace=True)
            (linear2): Conv1d(64, 32, kernel_size=(1,), stride=(1,))
            (sigmoid): Sigmoid()
          )
        )
        (17): CAMDenseTDNNLayer(
          (nonlinear1): Sequential(
            (batchnorm): BatchNorm1d(800, eps=1e-05, momentum=0.1, affine=True, track_running_stats=True)
            (relu): ReLU(inplace=True)
          )
          (linear1): Conv1d(800, 128, kernel_size=(1,), stride=(1,), bias=False)
          (nonlinear2): Sequential(
            (batchnorm): BatchNorm1d(128, eps=1e-05, momentum=0.1, affine=True, track_running_stats=True)
            (relu): ReLU(inplace=True)
          )
          (cam_layer): CAMLayer(
            (linear_local): Conv1d(128, 32, kernel_size=(3,), stride=(1,), padding=(2,), dilation=(2,), bias=False)
            (linear1): Conv1d(128, 64, kernel_size=(1,), stride=(1,))
            (relu): ReLU(inplace=True)
            (linear2): Conv1d(64, 32, kernel_size=(1,), stride=(1,))
            (sigmoid): Sigmoid()
          )
        )
        (18): CAMDenseTDNNLayer(
          (nonlinear1): Sequential(
            (batchnorm): BatchNorm1d(832, eps=1e-05, momentum=0.1, affine=True, track_running_stats=True)
            (relu): ReLU(inplace=True)
          )
          (linear1): Conv1d(832, 128, kernel_size=(1,), stride=(1,), bias=False)
          (nonlinear2): Sequential(
            (batchnorm): BatchNorm1d(128, eps=1e-05, momentum=0.1, affine=True, track_running_stats=True)
            (relu): ReLU(inplace=True)
          )
          (cam_layer): CAMLayer(
            (linear_local): Conv1d(128, 32, kernel_size=(3,), stride=(1,), padding=(2,), dilation=(2,), bias=False)
            (linear1): Conv1d(128, 64, kernel_size=(1,), stride=(1,))
            (relu): ReLU(inplace=True)
            (linear2): Conv1d(64, 32, kernel_size=(1,), stride=(1,))
            (sigmoid): Sigmoid()
          )
        )
        (19): CAMDenseTDNNLayer(
          (nonlinear1): Sequential(
            (batchnorm): BatchNorm1d(864, eps=1e-05, momentum=0.1, affine=True, track_running_stats=True)
            (relu): ReLU(inplace=True)
          )
          (linear1): Conv1d(864, 128, kernel_size=(1,), stride=(1,), bias=False)
          (nonlinear2): Sequential(
            (batchnorm): BatchNorm1d(128, eps=1e-05, momentum=0.1, affine=True, track_running_stats=True)
            (relu): ReLU(inplace=True)
          )
          (cam_layer): CAMLayer(
            (linear_local): Conv1d(128, 32, kernel_size=(3,), stride=(1,), padding=(2,), dilation=(2,), bias=False)
            (linear1): Conv1d(128, 64, kernel_size=(1,), stride=(1,))
            (relu): ReLU(inplace=True)
            (linear2): Conv1d(64, 32, kernel_size=(1,), stride=(1,))
            (sigmoid): Sigmoid()
          )
        )
        (20): CAMDenseTDNNLayer(
          (nonlinear1): Sequential(
            (batchnorm): BatchNorm1d(896, eps=1e-05, momentum=0.1, affine=True, track_running_stats=True)
            (relu): ReLU(inplace=True)
          )
          (linear1): Conv1d(896, 128, kernel_size=(1,), stride=(1,), bias=False)
          (nonlinear2): Sequential(
            (batchnorm): BatchNorm1d(128, eps=1e-05, momentum=0.1, affine=True, track_running_stats=True)
            (relu): ReLU(inplace=True)
          )
          (cam_layer): CAMLayer(
            (linear_local): Conv1d(128, 32, kernel_size=(3,), stride=(1,), padding=(2,), dilation=(2,), bias=False)
            (linear1): Conv1d(128, 64, kernel_size=(1,), stride=(1,))
            (relu): ReLU(inplace=True)
            (linear2): Conv1d(64, 32, kernel_size=(1,), stride=(1,))
            (sigmoid): Sigmoid()
          )
        )
        (21): CAMDenseTDNNLayer(
          (nonlinear1): Sequential(
            (batchnorm): BatchNorm1d(928, eps=1e-05, momentum=0.1, affine=True, track_running_stats=True)
            (relu): ReLU(inplace=True)
          )
          (linear1): Conv1d(928, 128, kernel_size=(1,), stride=(1,), bias=False)
          (nonlinear2): Sequential(
            (batchnorm): BatchNorm1d(128, eps=1e-05, momentum=0.1, affine=True, track_running_stats=True)
            (relu): ReLU(inplace=True)
          )
          (cam_layer): CAMLayer(
            (linear_local): Conv1d(128, 32, kernel_size=(3,), stride=(1,), padding=(2,), dilation=(2,), bias=False)
            (linear1): Conv1d(128, 64, kernel_size=(1,), stride=(1,))
            (relu): ReLU(inplace=True)
            (linear2): Conv1d(64, 32, kernel_size=(1,), stride=(1,))
            (sigmoid): Sigmoid()
          )
        )
        (22): CAMDenseTDNNLayer(
          (nonlinear1): Sequential(
            (batchnorm): BatchNorm1d(960, eps=1e-05, momentum=0.1, affine=True, track_running_stats=True)
            (relu): ReLU(inplace=True)
          )
          (linear1): Conv1d(960, 128, kernel_size=(1,), stride=(1,), bias=False)
          (nonlinear2): Sequential(
            (batchnorm): BatchNorm1d(128, eps=1e-05, momentum=0.1, affine=True, track_running_stats=True)
            (relu): ReLU(inplace=True)
          )
          (cam_layer): CAMLayer(
            (linear_local): Conv1d(128, 32, kernel_size=(3,), stride=(1,), padding=(2,), dilation=(2,), bias=False)
            (linear1): Conv1d(128, 64, kernel_size=(1,), stride=(1,))
            (relu): ReLU(inplace=True)
            (linear2): Conv1d(64, 32, kernel_size=(1,), stride=(1,))
            (sigmoid): Sigmoid()
          )
        )
        (23): CAMDenseTDNNLayer(
          (nonlinear1): Sequential(
            (batchnorm): BatchNorm1d(992, eps=1e-05, momentum=0.1, affine=True, track_running_stats=True)
            (relu): ReLU(inplace=True)
          )
          (linear1): Conv1d(992, 128, kernel_size=(1,), stride=(1,), bias=False)
          (nonlinear2): Sequential(
            (batchnorm): BatchNorm1d(128, eps=1e-05, momentum=0.1, affine=True, track_running_stats=True)
            (relu): ReLU(inplace=True)
          )
          (cam_layer): CAMLayer(
            (linear_local): Conv1d(128, 32, kernel_size=(3,), stride=(1,), padding=(2,), dilation=(2,), bias=False)
            (linear1): Conv1d(128, 64, kernel_size=(1,), stride=(1,))
            (relu): ReLU(inplace=True)
            (linear2): Conv1d(64, 32, kernel_size=(1,), stride=(1,))
            (sigmoid): Sigmoid()
          )
        )
      )
      (transit2): TransitLayer(
        (nonlinear): Sequential(
          (batchnorm): BatchNorm1d(1024, eps=1e-05, momentum=0.1, affine=True, track_running_stats=True)
          (relu): ReLU(inplace=True)
        )
        (linear): Conv1d(1024, 512, kernel_size=(1,), stride=(1,), bias=False)
      )
      (block3): CAMDenseTDNNBlock(
        (0): CAMDenseTDNNLayer(
          (nonlinear1): Sequential(
            (batchnorm): BatchNorm1d(512, eps=1e-05, momentum=0.1, affine=True, track_running_stats=True)
            (relu): ReLU(inplace=True)
          )
          (linear1): Conv1d(512, 128, kernel_size=(1,), stride=(1,), bias=False)
          (nonlinear2): Sequential(
            (batchnorm): BatchNorm1d(128, eps=1e-05, momentum=0.1, affine=True, track_running_stats=True)
            (relu): ReLU(inplace=True)
          )
          (cam_layer): CAMLayer(
            (linear_local): Conv1d(128, 32, kernel_size=(3,), stride=(1,), padding=(2,), dilation=(2,), bias=False)
            (linear1): Conv1d(128, 64, kernel_size=(1,), stride=(1,))
            (relu): ReLU(inplace=True)
            (linear2): Conv1d(64, 32, kernel_size=(1,), stride=(1,))
            (sigmoid): Sigmoid()
          )
        )
        (1): CAMDenseTDNNLayer(
          (nonlinear1): Sequential(
            (batchnorm): BatchNorm1d(544, eps=1e-05, momentum=0.1, affine=True, track_running_stats=True)
            (relu): ReLU(inplace=True)
          )
          (linear1): Conv1d(544, 128, kernel_size=(1,), stride=(1,), bias=False)
          (nonlinear2): Sequential(
            (batchnorm): BatchNorm1d(128, eps=1e-05, momentum=0.1, affine=True, track_running_stats=True)
            (relu): ReLU(inplace=True)
          )
          (cam_layer): CAMLayer(
            (linear_local): Conv1d(128, 32, kernel_size=(3,), stride=(1,), padding=(2,), dilation=(2,), bias=False)
            (linear1): Conv1d(128, 64, kernel_size=(1,), stride=(1,))
            (relu): ReLU(inplace=True)
            (linear2): Conv1d(64, 32, kernel_size=(1,), stride=(1,))
            (sigmoid): Sigmoid()
          )
        )
        (2): CAMDenseTDNNLayer(
          (nonlinear1): Sequential(
            (batchnorm): BatchNorm1d(576, eps=1e-05, momentum=0.1, affine=True, track_running_stats=True)
            (relu): ReLU(inplace=True)
          )
          (linear1): Conv1d(576, 128, kernel_size=(1,), stride=(1,), bias=False)
          (nonlinear2): Sequential(
            (batchnorm): BatchNorm1d(128, eps=1e-05, momentum=0.1, affine=True, track_running_stats=True)
            (relu): ReLU(inplace=True)
          )
          (cam_layer): CAMLayer(
            (linear_local): Conv1d(128, 32, kernel_size=(3,), stride=(1,), padding=(2,), dilation=(2,), bias=False)
            (linear1): Conv1d(128, 64, kernel_size=(1,), stride=(1,))
            (relu): ReLU(inplace=True)
            (linear2): Conv1d(64, 32, kernel_size=(1,), stride=(1,))
            (sigmoid): Sigmoid()
          )
        )
        (3): CAMDenseTDNNLayer(
          (nonlinear1): Sequential(
            (batchnorm): BatchNorm1d(608, eps=1e-05, momentum=0.1, affine=True, track_running_stats=True)
            (relu): ReLU(inplace=True)
          )
          (linear1): Conv1d(608, 128, kernel_size=(1,), stride=(1,), bias=False)
          (nonlinear2): Sequential(
            (batchnorm): BatchNorm1d(128, eps=1e-05, momentum=0.1, affine=True, track_running_stats=True)
            (relu): ReLU(inplace=True)
          )
          (cam_layer): CAMLayer(
            (linear_local): Conv1d(128, 32, kernel_size=(3,), stride=(1,), padding=(2,), dilation=(2,), bias=False)
            (linear1): Conv1d(128, 64, kernel_size=(1,), stride=(1,))
            (relu): ReLU(inplace=True)
            (linear2): Conv1d(64, 32, kernel_size=(1,), stride=(1,))
            (sigmoid): Sigmoid()
          )
        )
        (4): CAMDenseTDNNLayer(
          (nonlinear1): Sequential(
            (batchnorm): BatchNorm1d(640, eps=1e-05, momentum=0.1, affine=True, track_running_stats=True)
            (relu): ReLU(inplace=True)
          )
          (linear1): Conv1d(640, 128, kernel_size=(1,), stride=(1,), bias=False)
          (nonlinear2): Sequential(
            (batchnorm): BatchNorm1d(128, eps=1e-05, momentum=0.1, affine=True, track_running_stats=True)
            (relu): ReLU(inplace=True)
          )
          (cam_layer): CAMLayer(
            (linear_local): Conv1d(128, 32, kernel_size=(3,), stride=(1,), padding=(2,), dilation=(2,), bias=False)
            (linear1): Conv1d(128, 64, kernel_size=(1,), stride=(1,))
            (relu): ReLU(inplace=True)
            (linear2): Conv1d(64, 32, kernel_size=(1,), stride=(1,))
            (sigmoid): Sigmoid()
          )
        )
        (5): CAMDenseTDNNLayer(
          (nonlinear1): Sequential(
            (batchnorm): BatchNorm1d(672, eps=1e-05, momentum=0.1, affine=True, track_running_stats=True)
            (relu): ReLU(inplace=True)
          )
          (linear1): Conv1d(672, 128, kernel_size=(1,), stride=(1,), bias=False)
          (nonlinear2): Sequential(
            (batchnorm): BatchNorm1d(128, eps=1e-05, momentum=0.1, affine=True, track_running_stats=True)
            (relu): ReLU(inplace=True)
          )
          (cam_layer): CAMLayer(
            (linear_local): Conv1d(128, 32, kernel_size=(3,), stride=(1,), padding=(2,), dilation=(2,), bias=False)
            (linear1): Conv1d(128, 64, kernel_size=(1,), stride=(1,))
            (relu): ReLU(inplace=True)
            (linear2): Conv1d(64, 32, kernel_size=(1,), stride=(1,))
            (sigmoid): Sigmoid()
          )
        )
        (6): CAMDenseTDNNLayer(
          (nonlinear1): Sequential(
            (batchnorm): BatchNorm1d(704, eps=1e-05, momentum=0.1, affine=True, track_running_stats=True)
            (relu): ReLU(inplace=True)
          )
          (linear1): Conv1d(704, 128, kernel_size=(1,), stride=(1,), bias=False)
          (nonlinear2): Sequential(
            (batchnorm): BatchNorm1d(128, eps=1e-05, momentum=0.1, affine=True, track_running_stats=True)
            (relu): ReLU(inplace=True)
          )
          (cam_layer): CAMLayer(
            (linear_local): Conv1d(128, 32, kernel_size=(3,), stride=(1,), padding=(2,), dilation=(2,), bias=False)
            (linear1): Conv1d(128, 64, kernel_size=(1,), stride=(1,))
            (relu): ReLU(inplace=True)
            (linear2): Conv1d(64, 32, kernel_size=(1,), stride=(1,))
            (sigmoid): Sigmoid()
          )
        )
        (7): CAMDenseTDNNLayer(
          (nonlinear1): Sequential(
            (batchnorm): BatchNorm1d(736, eps=1e-05, momentum=0.1, affine=True, track_running_stats=True)
            (relu): ReLU(inplace=True)
          )
          (linear1): Conv1d(736, 128, kernel_size=(1,), stride=(1,), bias=False)
          (nonlinear2): Sequential(
            (batchnorm): BatchNorm1d(128, eps=1e-05, momentum=0.1, affine=True, track_running_stats=True)
            (relu): ReLU(inplace=True)
          )
          (cam_layer): CAMLayer(
            (linear_local): Conv1d(128, 32, kernel_size=(3,), stride=(1,), padding=(2,), dilation=(2,), bias=False)
            (linear1): Conv1d(128, 64, kernel_size=(1,), stride=(1,))
            (relu): ReLU(inplace=True)
            (linear2): Conv1d(64, 32, kernel_size=(1,), stride=(1,))
            (sigmoid): Sigmoid()
          )
        )
        (8): CAMDenseTDNNLayer(
          (nonlinear1): Sequential(
            (batchnorm): BatchNorm1d(768, eps=1e-05, momentum=0.1, affine=True, track_running_stats=True)
            (relu): ReLU(inplace=True)
          )
          (linear1): Conv1d(768, 128, kernel_size=(1,), stride=(1,), bias=False)
          (nonlinear2): Sequential(
            (batchnorm): BatchNorm1d(128, eps=1e-05, momentum=0.1, affine=True, track_running_stats=True)
            (relu): ReLU(inplace=True)
          )
          (cam_layer): CAMLayer(
            (linear_local): Conv1d(128, 32, kernel_size=(3,), stride=(1,), padding=(2,), dilation=(2,), bias=False)
            (linear1): Conv1d(128, 64, kernel_size=(1,), stride=(1,))
            (relu): ReLU(inplace=True)
            (linear2): Conv1d(64, 32, kernel_size=(1,), stride=(1,))
            (sigmoid): Sigmoid()
          )
        )
        (9): CAMDenseTDNNLayer(
          (nonlinear1): Sequential(
            (batchnorm): BatchNorm1d(800, eps=1e-05, momentum=0.1, affine=True, track_running_stats=True)
            (relu): ReLU(inplace=True)
          )
          (linear1): Conv1d(800, 128, kernel_size=(1,), stride=(1,), bias=False)
          (nonlinear2): Sequential(
            (batchnorm): BatchNorm1d(128, eps=1e-05, momentum=0.1, affine=True, track_running_stats=True)
            (relu): ReLU(inplace=True)
          )
          (cam_layer): CAMLayer(
            (linear_local): Conv1d(128, 32, kernel_size=(3,), stride=(1,), padding=(2,), dilation=(2,), bias=False)
            (linear1): Conv1d(128, 64, kernel_size=(1,), stride=(1,))
            (relu): ReLU(inplace=True)
            (linear2): Conv1d(64, 32, kernel_size=(1,), stride=(1,))
            (sigmoid): Sigmoid()
          )
        )
        (10): CAMDenseTDNNLayer(
          (nonlinear1): Sequential(
            (batchnorm): BatchNorm1d(832, eps=1e-05, momentum=0.1, affine=True, track_running_stats=True)
            (relu): ReLU(inplace=True)
          )
          (linear1): Conv1d(832, 128, kernel_size=(1,), stride=(1,), bias=False)
          (nonlinear2): Sequential(
            (batchnorm): BatchNorm1d(128, eps=1e-05, momentum=0.1, affine=True, track_running_stats=True)
            (relu): ReLU(inplace=True)
          )
          (cam_layer): CAMLayer(
            (linear_local): Conv1d(128, 32, kernel_size=(3,), stride=(1,), padding=(2,), dilation=(2,), bias=False)
            (linear1): Conv1d(128, 64, kernel_size=(1,), stride=(1,))
            (relu): ReLU(inplace=True)
            (linear2): Conv1d(64, 32, kernel_size=(1,), stride=(1,))
            (sigmoid): Sigmoid()
          )
        )
        (11): CAMDenseTDNNLayer(
          (nonlinear1): Sequential(
            (batchnorm): BatchNorm1d(864, eps=1e-05, momentum=0.1, affine=True, track_running_stats=True)
            (relu): ReLU(inplace=True)
          )
          (linear1): Conv1d(864, 128, kernel_size=(1,), stride=(1,), bias=False)
          (nonlinear2): Sequential(
            (batchnorm): BatchNorm1d(128, eps=1e-05, momentum=0.1, affine=True, track_running_stats=True)
            (relu): ReLU(inplace=True)
          )
          (cam_layer): CAMLayer(
            (linear_local): Conv1d(128, 32, kernel_size=(3,), stride=(1,), padding=(2,), dilation=(2,), bias=False)
            (linear1): Conv1d(128, 64, kernel_size=(1,), stride=(1,))
            (relu): ReLU(inplace=True)
            (linear2): Conv1d(64, 32, kernel_size=(1,), stride=(1,))
            (sigmoid): Sigmoid()
          )
        )
        (12): CAMDenseTDNNLayer(
          (nonlinear1): Sequential(
            (batchnorm): BatchNorm1d(896, eps=1e-05, momentum=0.1, affine=True, track_running_stats=True)
            (relu): ReLU(inplace=True)
          )
          (linear1): Conv1d(896, 128, kernel_size=(1,), stride=(1,), bias=False)
          (nonlinear2): Sequential(
            (batchnorm): BatchNorm1d(128, eps=1e-05, momentum=0.1, affine=True, track_running_stats=True)
            (relu): ReLU(inplace=True)
          )
          (cam_layer): CAMLayer(
            (linear_local): Conv1d(128, 32, kernel_size=(3,), stride=(1,), padding=(2,), dilation=(2,), bias=False)
            (linear1): Conv1d(128, 64, kernel_size=(1,), stride=(1,))
            (relu): ReLU(inplace=True)
            (linear2): Conv1d(64, 32, kernel_size=(1,), stride=(1,))
            (sigmoid): Sigmoid()
          )
        )
        (13): CAMDenseTDNNLayer(
          (nonlinear1): Sequential(
            (batchnorm): BatchNorm1d(928, eps=1e-05, momentum=0.1, affine=True, track_running_stats=True)
            (relu): ReLU(inplace=True)
          )
          (linear1): Conv1d(928, 128, kernel_size=(1,), stride=(1,), bias=False)
          (nonlinear2): Sequential(
            (batchnorm): BatchNorm1d(128, eps=1e-05, momentum=0.1, affine=True, track_running_stats=True)
            (relu): ReLU(inplace=True)
          )
          (cam_layer): CAMLayer(
            (linear_local): Conv1d(128, 32, kernel_size=(3,), stride=(1,), padding=(2,), dilation=(2,), bias=False)
            (linear1): Conv1d(128, 64, kernel_size=(1,), stride=(1,))
            (relu): ReLU(inplace=True)
            (linear2): Conv1d(64, 32, kernel_size=(1,), stride=(1,))
            (sigmoid): Sigmoid()
          )
        )
        (14): CAMDenseTDNNLayer(
          (nonlinear1): Sequential(
            (batchnorm): BatchNorm1d(960, eps=1e-05, momentum=0.1, affine=True, track_running_stats=True)
            (relu): ReLU(inplace=True)
          )
          (linear1): Conv1d(960, 128, kernel_size=(1,), stride=(1,), bias=False)
          (nonlinear2): Sequential(
            (batchnorm): BatchNorm1d(128, eps=1e-05, momentum=0.1, affine=True, track_running_stats=True)
            (relu): ReLU(inplace=True)
          )
          (cam_layer): CAMLayer(
            (linear_local): Conv1d(128, 32, kernel_size=(3,), stride=(1,), padding=(2,), dilation=(2,), bias=False)
            (linear1): Conv1d(128, 64, kernel_size=(1,), stride=(1,))
            (relu): ReLU(inplace=True)
            (linear2): Conv1d(64, 32, kernel_size=(1,), stride=(1,))
            (sigmoid): Sigmoid()
          )
        )
        (15): CAMDenseTDNNLayer(
          (nonlinear1): Sequential(
            (batchnorm): BatchNorm1d(992, eps=1e-05, momentum=0.1, affine=True, track_running_stats=True)
            (relu): ReLU(inplace=True)
          )
          (linear1): Conv1d(992, 128, kernel_size=(1,), stride=(1,), bias=False)
          (nonlinear2): Sequential(
            (batchnorm): BatchNorm1d(128, eps=1e-05, momentum=0.1, affine=True, track_running_stats=True)
            (relu): ReLU(inplace=True)
          )
          (cam_layer): CAMLayer(
            (linear_local): Conv1d(128, 32, kernel_size=(3,), stride=(1,), padding=(2,), dilation=(2,), bias=False)
            (linear1): Conv1d(128, 64, kernel_size=(1,), stride=(1,))
            (relu): ReLU(inplace=True)
            (linear2): Conv1d(64, 32, kernel_size=(1,), stride=(1,))
            (sigmoid): Sigmoid()
          )
        )
      )
      (transit3): TransitLayer(
        (nonlinear): Sequential(
          (batchnorm): BatchNorm1d(1024, eps=1e-05, momentum=0.1, affine=True, track_running_stats=True)
          (relu): ReLU(inplace=True)
        )
        (linear): Conv1d(1024, 512, kernel_size=(1,), stride=(1,), bias=False)
      )
      (out_nonlinear): Sequential(
        (batchnorm): BatchNorm1d(512, eps=1e-05, momentum=0.1, affine=True, track_running_stats=True)
        (relu): ReLU(inplace=True)
      )
      (stats): StatsPool()
      (dense): DenseLayer(
        (linear): Conv1d(1024, 192, kernel_size=(1,), stride=(1,), bias=False)
        (nonlinear): Sequential(
          (batchnorm): BatchNorm1d(192, eps=1e-05, momentum=0.1, affine=False, track_running_stats=True)
        )
      )
    )
  )
  (speech_down_or_up): Sequential(
    (0): Conv1d(512, 192, kernel_size=(5,), stride=(2,), padding=(2,))
    (1): BatchNorm1D(
      (bn): BatchNorm1d(192, eps=1e-05, momentum=0.1, affine=True, track_running_stats=True)
    )
    (2): ReLU()
  )
  (single_backend): TransformerEncoder(
    (layers): ModuleList(
      (0-1): 2 x TransformerEncoderLayer(
        (self_attn): MultiheadAttention(
          (out_proj): NonDynamicallyQuantizableLinear(in_features=384, out_features=384, bias=True)
        )
        (linear1): Linear(in_features=384, out_features=1536, bias=True)
        (dropout): Dropout(p=0.1, inplace=False)
        (linear2): Linear(in_features=1536, out_features=384, bias=True)
        (norm1): LayerNorm((384,), eps=1e-05, elementwise_affine=True)
        (norm2): LayerNorm((384,), eps=1e-05, elementwise_affine=True)
        (dropout1): Dropout(p=0.1, inplace=False)
        (dropout2): Dropout(p=0.1, inplace=False)
      )
    )
  )
  (pos_encoder): PositionalEncoding(
    (dropout): Dropout(p=0.1, inplace=False)
  )
  (backend_down): Sequential(
    (0): Conv1d(1536, 384, kernel_size=(5,), stride=(1,), padding=(2,))
    (1): BatchNorm1D(
      (bn): BatchNorm1d(384, eps=1e-05, momentum=0.1, affine=True, track_running_stats=True)
    )
    (2): ReLU()
  )
  (multi_backend): TransformerEncoder(
    (layers): ModuleList(
      (0-1): 2 x TransformerEncoderLayer(
        (self_attn): MultiheadAttention(
          (out_proj): NonDynamicallyQuantizableLinear(in_features=384, out_features=384, bias=True)
        )
        (linear1): Linear(in_features=384, out_features=1536, bias=True)
        (dropout): Dropout(p=0.1, inplace=False)
        (linear2): Linear(in_features=1536, out_features=384, bias=True)
        (norm1): LayerNorm((384,), eps=1e-05, elementwise_affine=True)
        (norm2): LayerNorm((384,), eps=1e-05, elementwise_affine=True)
        (dropout1): Dropout(p=0.1, inplace=False)
        (dropout2): Dropout(p=0.1, inplace=False)
      )
    )
  )
  (fc): Linear(in_features=384, out_features=4, bias=True)
)
2024-12-18 16:01:39,820 (train_accelerate_ddp:934) INFO: Number of model parameters: 17390308
hltsz02:2519568:2519568 [0] NCCL INFO Bootstrap : Using eno1:10.26.1.136<0>
hltsz02:2519568:2519568 [0] NCCL INFO NET/Plugin : Plugin load (libnccl-net.so) returned 2 : libnccl-net.so: cannot open shared object file: No such file or directory
hltsz02:2519568:2519568 [0] NCCL INFO NET/Plugin : No plugin found, using internal implementation
…
